tennis/checkpoint_actor.pth (torch_old, 524545 bytes, 6 tensors)

fc1.weight f4 [400, 24]
-0.03884687 -0.014069419 -0.0054035843 -0.088325106 0.00042322426 -0.023584858 -0.037832294 -0.03834378
-0.011568966 0.011687476 -0.0037365067 -0.063970685 0.049784377 -0.03910291 -0.0007424042 -0.045332104
-0.05683696 -0.016933389 0.036977217 -0.09422117 0.08444183 -0.09033513 -0.0076607033 -0.16226111
-0.024544181 -0.06834948 -0.010515987 -0.021902474 0.11212557 -0.050571892 0.017851656 0.02425264
-0.008785703 -0.019056872 -0.04065559 0.0019761233 0.08944602 -0.15627018 -0.005020521 -0.007295094
-0.030464167 -0.018405281 -0.028685601 -0.0066591995 0.07115557 0.0097769275 0.021912642 -0.026022248
0.01998396 -0.033561077 -0.023681395 -0.007771815 0.19816133 -0.051425066 -0.009882474 0.0016194135
0.054207616 0.018159213 0.04169518 -0.066916406 0.18267791 0.001681129 -0.036659833 -0.051901344
0.047617286 0.044939708 -0.02191784 -0.0103846025 0.12852095 -0.010112426 0.011358385 -0.050051935
0.051597107 -0.07456763 -0.013717236 0.0055928435 -0.16296469 -0.0602135 -0.006721497 0.009884141
0.078032464 -0.03501328 -0.028675606 0.018320834 -0.04414958 0.045072205 0.01587802 0.041507483
0.06562978 -0.09805373 0.022954885 0.040734164 0.035568696 0.04300858 0.03384343 0.029638536
0.0090510445 0.08680063 0.01076854 -0.004642034 0.01735681 -0.064227276 -0.03354164 0.045007236
0.014004813 0.060060926 -0.060866065 -0.022037711 0.043832034 -0.15598872 -0.065208256 -0.064714015
0.09315472 0.025525846 -0.022391127 -0.036627874 0.0626685 -0.06265069 -0.050866265 -0.06582075
0.0985986 -0.027409658 -0.005480693 -0.12194446 0.13121554 -0.070331424 -0.010027457 -0.18393052
0.060009103 -0.037432298 0.012284885 0.026992513 0.13076566 -0.056130253 -0.03327637 0.02041916
0.10159409 0.029361684 -0.024372537 0.04605763 0.08164698 0.0047540036 -0.016478378 -0.027059607
-0.033647366 -0.06507046 -0.036445145 -0.05186735 -0.021064341 0.019371256 -0.0077196495 0.005454307
0.02953752 -0.1012207 -0.02526786 0.07529107 -0.010664064 0.077720016 0.029128483 0.060991175
-0.019754702 -0.13820088 -0.03374586 0.0429588 -0.05304077 0.20370987 -0.009765411 0.027791321
-0.07390906 0.13344905 -0.012075323 0.05816871 0.021142047 -0.03521105 -0.07254005 0.0027454281
-0.06696839 0.16154933 -0.062428918 -0.07031468 -0.002964543 -0.1119488 -0.023744455 0.025994478
-0.011655014 0.1687308 0.004304053 0.03962244 0.05327642 -0.13639113 -0.0101982895 0.057272673
-0.030382937 -0.045666408 0.003804841 0.112856284 -0.1340782 -0.020324344 -0.0020482335 0.07013734
-0.12688978 -0.0042951717 0.008618281 0.0043655196 0.006158897 -0.04033124 -0.0018530401 0.012008058
-0.062109098 -0.024521362 -0.0042850696 -0.10466686 0.14072335 0.051108822 -0.0018699662 -0.07689674
-0.05002565 0.12778807 -0.0033874672 0.09923493 -0.0069167283 -0.011025957 -0.02745456 0.0626916
-0.05070328 0.15765168 -0.019109238 -0.031694543 -0.051487066 -0.12823217 -0.02632455 -0.014287205
0.0025130557 0.2117797 0.019481698 0.027466085 -0.061876263 -0.23495765 -0.036106206 0.047700897
0.09438967 0.06586918 -0.023602806 -0.0038988309 0.018669412 -0.13958047 -0.05045691 -0.060199827
0.018134985 0.10709138 -0.009169623 -0.05166479 0.046666857 0.0029416722 -0.052051194 -0.0021512015
00000000: e51d 1fbd 6c83 66bc 8d10 b1bb cbe3 b4bd
00000010: 33e4 dd39 0835 c1bc 09f6 1abd 5e0e 1dbd
00000020: c38b 3dbc d47c 3f3c 2ee0 74bb 1003 83bd
00000030: b4ea 4b3d 5f2a 20bd e79d 42ba 28ae 39bd
00000040: dfcd 68bd e4b7 8abc 6c75 173d 07f7 c0bd
00000050: d7ef ac3d a001 b9bd a306 fbbb c727 26be
00000060: e110 c9bc d0fa 8bbd 3f4b 2cbc d16c b3bc
00000070: 17a2 e53d 7924 4fbd a33d 923c 79ad c63c
00000080: e9f1 0fbc 281d 9cbc 7a86 26bd d981 013b
00000090: 7a2f b73d 4a05 20be 2f83 a4bb af0b efbb
000000a0: fd8f f9bc acc6 96bc 11fe eabc 6a35 dabb
000000b0: 03ba 913d 682f 203c 2482 b33c 9c2c d5bc
000000c0: 67b5 a33c 5777 09bd 7cff c1bc b6aa febb
000000d0: ceea 4a3e 17a3 52bd 1aea 21bc 8042 d43a
000000e0: ce08 5e3d a1c2 943c 91c8 2a3d 780b 89bd
000000f0: eb0f 3b3e 5459 dc3a 9f28 16bd 8196 54bd
00000100: 580a 433d b312 383d 0b8d b3bc 2e24 2abc
00000110: ff9a 033e 97ae 25bc 8518 3a3c 4203 4dbd
00000120: 7d57 533d eab6 98bd 42be 60bc 2c44 b73b
00000130: 37e0 26be 6ea2 76bd 0140 dcbb 18f1 213c
00000140: 7ccf 9f3d 166a 0fbd 1be9 eabc 9315 963c
00000150: 31d6 34bd a29d 383d 9f12 823c c003 2a3d
00000160: e868 863d 65d0 c8bd e20b bc3c ded8 263d
00000170: 7bb0 113d c429 303d 699f 0a3d 84cc f23c
00000180: d54a 143c 87c4 b13d 886e 303c 341c 98bb
00000190: de2f 8e3c 9789 83bd f562 09bd 8259 383d
000001a0: 7174 653c 7202 763d b24e 79bd 6e88 b4bc
000001b0: 3889 333d 82bb 1fbe e88b 85bd c888 84bd
000001c0: e7c7 be3d 941b d13c 996d b7bc 1c07 16bd
000001d0: 5858 803d 014f 80bd 2559 50bd 08cd 86bd
000001e0: 10ee c93d 388a e0bc 6397 b3bb 04be f9bd
000001f0: 5e5d 063e ec09 90bd 344a 24bc 4858 3cbe
00000200: 1bcc 753d 9c52 19bd 8b46 493c 671f dd3c
00000210: 6fe7 053e d6e8 65bd ce4c 08bd 1546 a73c
00000220: 9010 d03d ea87 f03c eaa8 c7bc eda6 3c3d
00000230: 8836 a73d 79c7 9b3b aafd 86bc 1cac ddbc
00000240: d2d1 09bd a943 85bd 8147 15bd dc72 54bd
00000250: 208f acbc 78b0 9e3c 1df5 fcbb 0bba b23b
00000260: abf8 f13c cc4c cfbd 8bfe cebc 3432 9a3d
00000270: 54b8 2ebc ac2b 9f3d db9e ee3c e2d1 793d
00000280: 9dd4 a1bc 8884 0dbe 1939 0abd 91f5 2f3d
00000290: 4741 59bd 5299 503e 1aff 1fbc a0aa e33c
000002a0: a25d 97bd dea6 083e 93d7 45bc 5042 6e3d
000002b0: 1632 ad3c 7639 10bd e18f 94bd a4ec 333b
000002c0: b926 89bd 306d 253e 77b5 7fbd 2501 90bd
000002d0: c748 42bb 6a45 e5bd bb83 c2bc 5ff2 d43c
000002e0: acf4 3ebc c4c7 2c3e 0309 8d3b 244b 223d
000002f0: 6038 5a3d 1eaa 0bbe ba16 27bc c096 6a3d
00000300: a3e5 f8bc b30c 3bbd a45a 793b 3221 e73d
00000310: cc4b 09be 3d7f a6bc a83b 06bb 2aa4 8f3d
00000320: 65ef 01be 83be 8cbb b133 0d3c a20c 8f3b
00000330: 93d0 c93b 5f32 25bd b5e1 f2ba 72bd 443c
00000340: 1c66 7ebd 06e1 c8bc c569 8cbb 945b d6bd
00000350: c819 103e 7c57 513d a719 f5ba 0a7c 9dbd
00000360: b2e7 4cbd e0da 023e 4500 5ebb af3b cb3d
00000370: b9a5 e2bb 37a6 34bc 63e8 e0bc 7464 803d
00000380: 3eae 4fbd 716f 213e fa8a 9cbc 23d2 01bd
00000390: 1ae4 52bd 4b4f 03be 95a6 d7bc e214 6abc
000003a0: 14b2 243b c7dc 583e 1598 9f3c 8e00 e13c
000003b0: f771 7dbd bd98 70be 1ae4 13bd 0462 433d
000003c0: 5f4f c13d 6ce6 863d ac5a c1bc 8783 7fbb
000003d0: 98f0 983c 2fee 0ebe e8ab 4ebd 1894 76bd
000003e0: d28f 943c ba52 db3d 303c 16bc 759e 53bd
000003f0: bf25 3f3d 12c9 403b a233 55bd 2cfb 0cbb

fc1.bias f4 [400]
0.19675 0.079480685 -0.056060158 0.15746643 -0.03832083 -0.052993093 0.054460846 -0.13538866
0.028753016 -0.206636 -0.06341673 -0.21568169 0.028868278 0.06080808 0.084278546 -0.14746854
-0.017405905 -0.050686482 -0.13628969 0.20074895 -0.22439915 0.1453436 -0.060550474 -0.15761837
-0.16240986 -0.21655107 -0.040076938 0.10285109 0.017233035 -0.18257281 0.2067163 0.13809535
0.043985456 0.16868682 0.1094203 0.11574975 0.06848257 -0.17341411 -0.030449668 -0.066805445
0.017917953 -0.17759156 0.14958744 -0.06490725 0.047060173 0.23774007 0.10310381 -0.01618821
0.18958446 -0.24946311 0.14708775 -0.17384991 0.15045567 0.0096924715 -0.08919567 -0.09961271
0.0009837452 0.11670861 0.20403081 0.10599215 0.092284426 0.14622341 -0.18543655 0.06169932
-0.015855037 0.13789845 0.0024401818 -0.033323616 0.12881729 -0.1528792 -0.10440179 -0.14347665
0.12399077 0.024569595 -0.1860125 0.011235966 -0.026837818 -0.15521076 0.21908298 0.111578524
0.14045493 -0.045870878 -0.13802002 -0.26286885 0.009008432 -0.13858706 0.09311176 -0.19968964
-0.19280468 -0.03204976 -0.022240309 -0.042710923 -0.12394379 -0.14383325 -0.013183607 -0.01899062
-0.24381565 -0.058042943 -0.06022574 -0.047737535 0.13876373 -0.21496186 0.037733078 0.15093131
0.017513065 -0.07761782 0.12600774 -0.19055492 -0.12511332 -0.052068703 -0.07086999 -0.19683227
0.10056918 0.099555835 -0.16219796 0.004234353 -0.18508832 -0.035458952 -0.013201523 0.21812679
0.09190619 0.025246304 0.065576024 -0.23095845 -0.11734083 0.19816709 -0.00064607104 -0.11673636
-0.08937385 0.06338212 0.13108656 -0.034005787 0.049315494 0.16402465 0.09262598 0.070645675
0.14183757 0.022251356 0.035461843 -0.18738171 -0.08098337 -0.07636729 0.040281363 -0.083669364
-0.2329618 0.1152639 -0.087572806 -0.19196904 -0.120197795 0.051044837 -0.12277939 -0.1945169
0.087640904 0.08607648 0.1926646 -0.16296928 0.044676542 -0.051965717 -0.0825413 -0.055687428
0.16510004 -0.04660281 0.1663668 0.0992036 -0.12753361 -0.060123615 0.16618827 0.10070711
-0.11785876 -0.10683672 -0.19073153 -0.106268786 -0.07772964 0.019741315 -0.07423217 0.061032392
-0.18820292 0.026483277 -0.17429222 -0.081372924 0.15792029 -0.0069136685 -0.1861517 -0.2828303
-0.08646197 -0.10382712 -0.17647879 0.030937558 0.016279023 0.017216992 0.109259255 -0.24211922
0.031009207 0.13261509 0.041902892 0.08529003 -0.14294805 -0.24257304 0.14395294 -0.23847955
-0.015143084 0.14204709 -0.17385554 -0.10552025 -0.08510552 0.008273053 -0.09904427 0.06854657
0.20587432 -0.22588126 0.08970103 0.00759349 -0.22446303 0.059499357 -0.16003028 0.15086783
-0.06941404 -0.084775925 -0.20939432 -0.039956734 -0.19155939 0.111171626 0.07362945 -0.16970152
0.017367475 -0.13846198 -0.02513809 -0.067050196 0.15391527 -0.16916028 -0.17116116 -0.06588875
-0.061896183 -0.010659009 -0.11021202 0.06946357 0.009038731 -0.1369706 -0.0032470517 0.15292677
0.11703532 0.06764571 -0.1432158 -0.16981874 0.12891626 -0.016595582 -0.008792301 0.10084941
-0.12074359 -0.25066048 -0.122951105 -0.21827568 0.11033664 0.095841356 -0.16428423 -0.005464036
00000000: d578 493e c5c6 a23d 569f 65bd e13e 213e
00000010: 4df6 1cbd 490f 59bd 5612 5f3d 53a3 0abe
00000020: 728b eb3c 6398 53be a1e0 81bd a9db 5cbe
00000030: 2b7d ec3c e511 793d 3b9a ac3d fe01 17be
00000040: d496 8ebc a19c 4fbd 868f 0bbe 2291 4d3e
00000050: e4c8 65be f4d4 143e c603 78bd b666 21be
00000060: c54e 26be 90bf 5dbe b727 24bd 98a3 d23d
00000070: 4b2c 8d3c 5ef4 3abe 70ad 533e de68 0d3e
00000080: 182a 343d 3dbc 2c3e c017 e03d 340e ed3d
00000090: 9740 8c3d 7893 31be 9571 f9bc 4bd1 88bd
000000a0: acc8 923c 90da 35be 732d 193e 18ee 84bd
000000b0: 2bc2 403d 2272 733e 1728 d33d 239d 84bc
000000c0: 6e22 423e 4273 7fbe 2c9e 163e b605 32be
000000d0: 0d11 1a3e 2ccd 1e3c 38ac b6bd c001 ccbd
000000e0: 03f1 803a ec04 ef3d 74ed 503e 6a12 d93d
000000f0: 9eff bc3d 97bb 153e 14e3 3dbe 6db8 7c3d
00000100: 6ce2 81bc 4035 0d3e 75eb 1f3b 587e 08bd
00000110: aee8 033e 5d8c 1cbe 9bd0 d5bd 8beb 12be
00000120: dfee fd3d 2d46 c93c 107a 3ebe 0f17 383c
00000130: fcda dbbc 92ef 1ebe 4a57 603e 4883 e43d
00000140: 6bd3 0f3e 1ae3 3bbd 1f55 0dbe bf96 86be
00000150: 1a98 133c c4e9 0dbe 61b1 be3d 717b 4cbe
00000160: 976e 45be 9c46 03bd 4f31 b6bc a6f1 2ebd
00000170: 3ed6 fdbd 0649 13be 0e00 58bc 3792 9bbc
00000180: cfaa 79be 70be 6dbd 44af 76bd 6f88 43bd
00000190: 1418 0e3e f61e 5cbe 008e 1a3d bd8d 1a3e
000001a0: 8f77 8f3c 17f6 9ebd 2c08 013e d420 43be
000001b0: b51d 00be fe45 55bd 4924 91bd 668e 49be
000001c0: 37f7 cd3d eee3 cb3d 3917 26be 54c0 8a3b
000001d0: cb87 3dbe 683d 11bd 334b 58bc a15c 5f3e
000001e0: 5039 bc3d 56d1 ce3c b94c 863d 5f80 6cbe
000001f0: 6450 f0bd 50ec 4a3e 185d 29ba 7913 efbd
00000200: a309 b7bd 7cce 813d 8e3b 063e a749 0bbd
00000210: 0bff 493d 14f6 273e b1b2 bd3d aeae 903d
00000220: de3d 113e 7a48 b63c 7040 113d fee0 3fbe
00000230: 9cda a5bd 7466 9cbd 12fe 243d d85a abbd
00000240: 8a8d 6ebe 7b0f ec3d 5f59 b3bd 8893 44be
00000250: 432a f6bd 6414 513d c373 fbbd 702f 47be
00000260: 137d b33d de48 b03d de49 453e 6be1 26be
00000270: c0fe 363d 01da 54bd 6a0b a9bd 8018 64bd
00000280: fc0f 293e 97e2 3ebd 0f5c 2a3e 422b cb3d
00000290: 2c98 02be 2e44 76bd 422d 2a3e 873f ce3d
000002a0: ef5f f1bd 36cd dabd 204f 43be 73a3 d9bd
000002b0: b830 9fbd 8ab8 a13c 0907 98bd 1afd 793d
000002c0: 44b8 40be 75f3 d83c a979 32be d9a6 a6bd
000002d0: dbb5 213e 0e8c e2bb 8d9e 3ebe 22cf 90be
000002e0: f912 b1bd 50a3 d4bd dbb6 34be c370 fd3c
000002f0: 965b 853c a60a 8d3c 51c3 df3d 1aee 77be
00000300: 0507 fe3c 40cc 073e 5ea2 2b3d 8aac ae3d
00000310: f960 12be 1165 78be 6668 133e fc33 74be
00000320: b31a 78bc cb74 113e 3007 32be 001b d8bd
00000330: ce4b aebd b38b 073c b9d7 cabd 2562 8c3d
00000340: b8d0 523e 6b4d 67be 2cb5 b73d d0d2 f83b
00000350: a3d9 65be 99b5 733d fade 23be 197d 1a3e
00000360: f328 8ebd 009f adbd 776b 56be aca9 23bd
00000370: 2528 44be f3ad e33d 09cb 963d 3cc6 2dbe
00000380: 3c46 8e3c fac8 0dbe 65ee cdbc 9d51 89bd
00000390: f79b 1d3e 5a38 2dbe df44 2fbe aef0 86bd
000003a0: da86 7dbd 20a3 2ebc d7b6 e1bd eb42 8e3d
000003b0: 3017 143c 0542 0cbe 7dcc 54bb d698 1c3e
000003c0: 37b0 ef3d d689 8a3d 2aa7 12be f7e4 2dbe
000003d0: a002 043e 75f3 87bc 950d 10bc 238a ce3d
000003e0: 6a48 f7bd 9256 80be cacd fbbd a983 5fbe
000003f0: 2df8 e13d 7948 c43d 203a 28be a80b b3bb

fc2.weight f4 [300, 400]
0.029650195 -0.031094233 -0.005898146 0.034042615 -0.036229067 -0.044352014 -0.03481194 0.040951014
0.05679321 0.014989157 -0.04392137 0.054790564 0.06163244 0.051312935 -0.09295711 -0.033400662
-0.0053438 0.028180104 0.0019443883 0.008063402 0.011966834 -0.035543807 -0.03703729 0.066469416
0.018026624 -0.07337355 -0.017807834 0.0734732 0.07059936 0.04144031 -0.015843304 0.010773654
-0.07725544 -0.01717127 0.028211 0.032379244 -0.00040911126 0.0009910288 0.043583304 -0.044753406
-0.011722014 -0.11679202 -0.008260248 0.036682878 0.058481023 -0.017120562 0.015856314 0.06543316
0.013937539 0.018424729 0.028390283 0.0362595 -0.030046904 -0.011168256 -0.012404161 0.05371932
0.007852956 0.06274997 -0.027132684 -0.039254695 0.039520808 0.015356891 0.04943688 0.028748866
0.0252169 -0.24859172 0.013751633 0.03738549 -0.006341821 0.066923335 0.011685865 0.022179723
0.020468665 0.026011774 0.0047084377 -0.0041729524 -0.026555942 -0.020664964 -0.02565231 0.049004883
0.011319547 0.015631555 0.04235253 0.006298451 -0.004792656 -0.12422681 -0.011834682 -0.10201217
-0.02140855 0.06800262 -0.03567036 0.0009899714 -0.00063710974 0.023529818 -0.026392221 0.0021792625
0.02354087 0.0018996947 -0.0042418833 0.0133257145 0.03318279 -0.012503457 0.0313687 -0.024609672
0.04828595 -0.06279288 -0.015053389 0.030862821 -0.06654133 0.03187402 -0.012207906 0.044948496
-0.024058394 0.0029780562 -0.03560172 -0.031550024 -0.121442094 0.024367247 -0.053675666 -0.018755155
-0.080912344 -0.0012367694 0.0038417554 0.10632605 0.021418644 -0.04404938 -0.086729944 -0.06391555
-0.07665062 -0.0074913786 0.087612316 0.008835994 -0.101717286 -0.018062307 -0.009187493 0.059930317
0.031317364 -0.060513575 0.05404149 0.01621538 0.005922093 -0.01777288 -0.026327975 -0.044028103
-0.009826821 0.0009135597 0.068578884 0.0043065315 -0.025868976 -0.0143231535 -0.13226958 -0.03428259
0.0026901893 0.036159053 -0.016425103 0.022144357 0.04357024 0.009618295 0.05454514 -0.013599301
-0.09415923 -0.096766405 0.011994652 -0.07892716 0.03224838 -0.019840352 0.0579321 0.018230235
0.040482234 0.011192812 -0.017003987 -0.025580684 -0.027262721 -0.044762973 -0.0028982386 -0.017043365
0.064447306 -0.07411774 0.0127769215 -0.026241656 -0.01273391 0.019056648 0.0017980348 0.114905536
-0.032175485 0.012248121 0.039429046 0.005180331 -0.0045240927 0.014058582 -0.03642753 0.005410005
0.059374537 -0.0015727713 0.05249609 0.026716493 0.0279976 0.03477557 -0.034230653 -0.0012320243
0.06308033 0.07047511 -0.053908687 0.008903641 0.007655858 0.0004473569 0.020812605 -0.02939069
0.02301259 0.10536863 -0.0844691 -0.030134168 -0.0041321833 -0.050541658 0.0057446463 -0.063109204
0.032000467 0.071297556 -0.004059993 -0.030406836 -0.047385175 -0.028671885 -0.05203137 0.049877707
0.011982472 0.0076389425 -0.0052979463 -0.006560529 -0.03137989 -0.043803398 -0.027738404 -0.12379624
0.02747055 0.028607717 -0.01389555 -0.075462304 0.055378627 0.022150654 0.00057882164 -0.026458303
-0.06715289 -0.03372611 0.029323297 0.02422049 0.09587759 -0.007070242 -0.011293123 0.0395021
0.021025771 0.041030213 0.093205884 -0.018198736 -0.018972471 -0.075019374 -0.07033365 -0.0055022384
00000000: f7e4 f23c 55b9 febc 3c45 c1bb 4570 0b3d
00000010: ee64 14bd 75aa 35bd f796 0ebd 40bc 273d
00000020: ff9f 683d 1595 753c e5e6 33bd 126c 603d
00000030: 4c72 7c3d 832d 523d 4c60 bebd 22cf 08bd
00000040: 0b1b afbb f6d9 e63c d8da fe3a 5c1c 043c
00000050: 8a10 443c 6296 11bd 6ab4 17bd 1e21 883d
00000060: 92ac 933c df44 96bd bce1 91bc 1e79 963d
00000070: 6696 903d 51bd 293d d1c9 81bc fb83 303c
00000080: 1a38 9ebd c3aa 8cbc c11a e73c 19a0 043d
00000090: fc7d d6b9 69e5 813a 6884 323d 594f 37bd
000000a0: b10d 40bc a830 efbd fe55 07bc c940 163d
000000b0: cc89 6f3d 6c40 8cbc 1ae5 813c d201 863d
000000c0: 475a 643c 75ef 963c bd92 e83c d784 143d
000000d0: ed24 f6bc 10fb 36bc d23a 4bbc ca08 5c3d
000000e0: afa9 003c 0e83 803d 5d45 debc 88c9 20bd
000000f0: 92e0 213d 789b 7b3c 537e 4a3d be82 eb3c
00000100: ac93 ce3c d48e 7ebe 884e 613c 8721 193d
00000110: 0dcf cfbb 1a0f 893d 1276 3f3c 40b2 b53c
00000120: e7ad a73c a516 d53c 3d49 9a3b 43bd 88bb
00000130: d98b d9bc 9249 a9bc cb24 d2bc 58b9 483d
00000140: 9f75 393c bf0d 803c d979 2d3d 3d63 ce3b
00000150: b60b 9dbb a06a febd 41e6 41bc c2eb d0bd
00000160: fc60 afbc f544 8b3d 151b 12bd eec1 813a
00000170: b603 27ba 9bc1 c03c 8034 d8bc f5d1 0e3b
00000180: c8d8 c03c 2dff f83a 7fff 8abb 1954 5a3c
00000190: adea 073d 4ddb 4cbc 777c 003d 399a c9bc
000001a0: 7dc7 453d 8e99 80bd 7da2 76bc 07d4 fc3c
000001b0: d246 88bd 558e 023d ab03 48bc ea1b 383d
000001c0: 1c16 c5bc 7e2b 433b 1cd3 11bd 993a 01bd
000001d0: a2b6 f8bd d29d c73c 04db 5bbd 69a4 99bc
000001e0: 5fb5 a5bd 181b a2ba f6c5 7b3b 79c1 d93d
000001f0: 2776 af3c 1f6d 34bd 789f b1bd 28e6 82bd
00000200: 00fb 9cbd 3d7a f5bb 166e b33d d8c4 103c
00000210: 2751 d0bd 67f7 93bc 2387 16bc 7e79 753d
00000220: a346 003d 15dd 77bd 9c5a 5d3d 1ed6 843c
00000230: 1e0e c23b 6e98 91bc c4ad d7bc d056 34bd
00000240: ad00 21bc f47b 6f3a 1673 8c3d ce1d 8d3b
00000250: 2deb d3bc a9ab 6abc ad71 07be e76b 0cbd
00000260: e34d 303b 841b 143d f08d 86bc 1568 b53c
00000270: b576 323d 0e96 1d3c ba6a 5f3d 9acf 5ebc
00000280: 8ed6 c0bd 772d c6bd 3885 443c 90a4 a1bd
00000290: e116 043d 3c88 a2bc 364a 6d3d 9357 953c
000002a0: b3d0 253d 0e62 373c f24b 8bbc 958e d1bc
000002b0: 1256 dfbc 6159 37bd 60f0 3dbb 879e 8bbc
000002c0: f3fc 833d 0bcb 97bd 4b56 513c bef8 d6bc
000002d0: e4a1 50bc b01c 9c3c 09ac eb3a 9853 eb3d
000002e0: 71ca 03bd 58ac 483c 5a80 213d c4bf a93b
000002f0: d73e 94bb f755 663c 0935 15bd 6946 b13b
00000300: b732 733d 7325 ceba 2406 573d 8cdc da3c
00000310: 395b e53c d470 0e3d 7135 0cbd e07b a1ba
00000320: 4330 813d 4155 903d 5bcf 5cbd 94e0 113c
00000330: fedd fa3b 3a8b ea39 327f aa3c bfc4 f0bc
00000340: e684 bc3c 82cb d73d 23fe acbd eedb f6bc
00000350: 4467 87bb c504 4fbd 963d bc3b 663f 81bd
00000360: ec12 033d 7404 923d b109 85bb c217 f9bc
00000370: f516 42bd 4de1 eabc d91e 55bd 914c 4c3d
00000380: 2152 443c 1850 fa3b 659a adbb b5f9 d6bb
00000390: 3388 00bd 316b 33bd a63b e3bc e288 fdbd
000003a0: eb09 e13c bb5a ea3c 29aa 63bc fb8b 9abd
000003b0: b3d4 623d 4a75 b53c 10bc 173a 15bf d8bc
000003c0: 7487 89bd 6424 0abd 6937 f03c 0d6a c63c
000003d0: 785b c43d 7dad e7bb ca06 39bc f4cc 213d
000003e0: 3d3e ac3c 4c0f 283d bae2 be3d 8415 95bc
000003f0: 286c 9bbc c2a3 99bd 170b 90bd 1f4c b4bb

fc2.bias f4 [300]
0.017314356 0.10303243 0.09443489 0.0071339076 0.03291247 0.08266239 0.00079030363 -0.0055131526
-0.013127421 -0.0045926515 0.058580868 0.03703206 -0.010612585 -0.0029923685 0.051831476 -0.05082765
-0.046988055 0.041688833 0.028882807 0.0034333507 -0.0076600728 -0.058291614 0.004203279 0.00096278044
0.061058246 0.06714376 -0.0016527215 -0.029462012 0.0513503 0.042995613 0.09867941 -0.016261585
0.09996061 0.013930855 0.058986854 0.0070356904 -0.03199563 0.05247053 -0.04826068 0.02846712
-0.062474936 0.016261203 0.036038466 -0.00024660848 0.07100997 0.010706236 -0.03792485 -0.022630816
0.053450152 -0.009804169 -0.003447235 0.048171457 -0.049684945 -0.0031662402 -0.025557244 0.018447967
0.017495666 0.026674708 -0.017776549 0.012209329 0.040949974 0.004640619 -0.050687667 -0.08482617
-0.021793064 -0.010976235 -0.0014569643 -0.007908436 0.0063300845 0.029834881 0.029361704 -0.003501585
-0.029735582 -0.039036375 0.08086989 0.035434432 -0.026623264 0.011999953 0.023127634 0.036187377
0.05426444 -0.04108835 -0.055566262 -0.06634265 -0.015783602 -0.0421672 -0.01172676 -0.01875783
-0.02778195 -0.040331535 0.00046202715 0.0035623226 -0.029978858 -0.059177566 0.026884664 0.0030882673
0.0059017744 -0.015423479 -0.03281039 0.0035715518 -0.008414767 -0.0048211515 -0.007802778 -0.019141044
-0.027045593 -0.018253732 -0.045911357 -0.009259848 0.08216732 -0.04112877 0.03875675 0.013869739
0.024603225 0.008906451 -0.010946151 0.0076953378 0.033922523 0.0029444422 0.07391845 -0.020962095
0.05634942 -0.019472973 -0.027497966 0.020596154 -0.020109957 -0.027288912 0.0025062687 0.0047319955
0.025045583 0.0589224 0.03909699 0.034944065 -0.0366416 0.0088057825 -0.0077609154 0.048280258
0.04829019 -0.02520358 0.0011005338 -0.047975212 0.06360205 0.008276815 -0.016696787 -0.03987184
0.0098248245 0.067159645 -0.011079635 -0.052385814 -0.037348825 0.0021637962 0.056625657 -0.0056157648
-0.0443347 -0.04441618 -0.006107782 -0.007224903 -0.057116598 -0.009540049 0.0063983453 0.06322412
-0.065227784 -0.01999933 0.06944567 -0.012189467 0.03592136 0.0066348473 0.08903612 -0.014555285
0.025141463 0.038119655 0.033391412 0.01722401 0.00096401095 0.058779042 0.060146198 0.016053323
0.06605734 0.01880352 -0.10541083 -0.0036889175 0.04018655 0.043978028 0.00785825 0.00212142
0.048015457 0.035058487 0.0018155293 -0.0009644865 0.010019415 -0.031223558 0.020404462 0.056061197
0.07605708 -0.01767519 0.062622786 -0.004772602 0.00050949556 0.024601184 -0.004558648 -0.025621079
0.022330014 0.03632144 0.029861322 0.05895002 0.00698344 0.06209462 0.046433017 -0.0033237117
-0.025634613 0.03350208 -0.050158586 0.029597607 0.03609971 -0.026710864 0.008941532 0.05881652
-0.027010236 0.076166965 -0.017059213 -0.044620834 -0.03053204 -0.0073188813 0.009332161 0.0721118
-0.015979365 0.0005593626 0.025475604 0.02683882 -0.00534533 0.011528012 0.06636551 -0.040644743
0.008607476 -0.00096724636 -0.0032420126 0.044377692 -0.039157018 -0.009602896 0.05053638 0.010684602
-0.016314348 0.06650865 0.036498837 -0.058665164 0.0332718 0.004636012 0.037303753 0.009384505
-0.0009069059 0.039809316 0.021455063 -0.028133687 -0.011029054 0.024084961 -0.014111761 -0.015064543
00000000: d6d6 8d3c ab02 d33d 1467 c13d 8ec3 e93b
00000010: 3acf 063d e64a a93d 612c 4f3a ada7 b4bb
00000020: 6514 57bc f47d 96bb 7ef2 6f3d eeae 173d
00000030: 68e0 2dbc 9d1b 44bb 3e4d 543d a730 50bd
00000040: 8c76 40bd e9c1 2a3d a39b ec3c 1102 613b
00000050: 5901 fbbb 30c3 6ebd a9bb 893b 1a63 7c3a
00000060: 3618 7a3d ab82 893d 22a0 d8ba 515a f1bc
00000070: b154 523d 2b1c 303d 6e18 ca3d 0437 85bc
00000080: 26b8 cc3d 3e3e 643c 339c 713d a68b e63b
00000090: da0d 03bd 57eb 563d feac 45bd e133 e93c
000000a0: b8e5 7fbd 3736 853c 129d 133d 3b4b 81b9
000000b0: ad6d 913d 3569 2f3c 1657 1bbd 4364 b9bc
000000c0: 8cee 5a3d aaa1 20bc 02eb 61bb 6f4f 453d
000000d0: 7182 4bbd b280 4fbb 6d5d d1bc 3120 973c
000000e0: 1253 8f3c eb84 da3c 20a0 91bc a309 483c
000000f0: 29bb 273d 5510 983b df9d 4fbd 58b9 adbd
00000100: 5e87 b2bc abd5 33bc 9cf7 beba 6292 01bc
00000110: 996c cf3b 4868 f43c f587 f03c d97a 65bb
00000120: 0998 f3bc 9be4 1fbd 1d9f a53d b223 113d
00000130: 0819 dabc 739b 443c 2a76 bd3c 3739 143d
00000140: 6444 5e3d 424c 28bd 7399 63bd a8de 87bd
00000150: 9d4c 81bc 84b7 2cbd 9921 40bc 05aa 99bc
00000160: f996 e3bc ae32 25bd 3c3c f239 db75 693b
00000170: 3996 f5bc 2d64 72bd 3a3d dc3c 8764 4a3b
00000180: ac63 c13b c2b2 7cbc 3064 06bd b210 6a3b
00000190: 17de 09bc c0fa 9dbb 72ae ffbb aecd 9cbc
000001a0: b88e ddbc da88 95bc 8c0d 3cbd 9eb6 17bc
000001b0: 5747 a83d a476 28bd 66bf 1e3d e73d 633c
000001c0: b48c c93c 5dec 113c 7c57 33bc 2c29 fc3b
000001d0: 58f2 0a3d 8bf7 403b 8e62 973d b3b8 abbc
000001e0: a6ce 663d c985 9fbc 6a43 e1bc 44b9 a83c
000001f0: a3bd a4bc ff8c dfbc 3640 243b db0e 9b3b
00000200: 652c cd3c 9d58 713d 2a24 203d 8221 0f3d
00000210: 8115 16bd 2146 103c 474f febb 85c1 453d
00000220: efcb 453d bd77 cebc c93f 903a a881 44bd
00000230: cb41 823d 7a9b 073c b3c7 88bc a850 23bd
00000240: 4df8 203c ff8a 893d 5b87 35bc 8292 56bd
00000250: 15fb 18bd 7ace 0d3b 4ef0 673d 7304 b8bb
00000260: 4d98 35bd beed 35bd ca23 c8bb e1be ecbb
00000270: 18f3 69bd de4d 1cbc 36a9 d13b a67b 813d
00000280: 2596 85bd a3d5 a3bc 8839 8e3d 55b6 47bc
00000290: 4722 133d 2269 d93b 9258 b63d 4a79 6ebc
000002a0: 78f5 cd3c 5b23 1c3d 6fc5 083d 5e19 8d3c
000002b0: aeb5 7c3a 4bc2 703d dc5b 763d 4282 833c
000002c0: 1249 873d d709 9a3c a2e1 d7bd c4c1 71bb
000002d0: a79a 243d 4e22 343d e4bf 003c 8607 0b3b
000002e0: dbab 443d 7d99 0f3d 0ef7 ed3a 98d5 7cba
000002f0: 7928 243c 8cc8 ffbc 4227 a73c 6da0 653d
00000300: d0c3 9b3d 8fcb 90bc 6040 803d 7d63 9cbb
00000310: ab8f 053a 6c88 c93c b660 95bb 4ce3 d1bc
00000320: 6fed b63c cac5 143d bb9f f43c 9375 713d
00000330: 57d5 e43b ee56 7e3d 8c30 3e3d a1d2 59bb
00000340: aeff d1bc 7a39 093d 1773 4dbd ae76 f23c
00000350: 4add 133d bed0 dabc 817f 123c 97e9 703d
00000360: 9244 ddbc 6dfd 9b3d c3bf 8bbc 56c4 36bd
00000370: 541e fabc 3ad3 efbb ece5 183c 5aaf 933d
00000380: 28e7 82bc 30a2 123a 37b2 d03c 16dd db3c
00000390: e127 afbb fddf 3c3c a4ea 873d 1a7b 26bd
000003a0: 5f06 0d3c ce8e 7dba f277 54bb 62c5 353d
000003b0: 1c63 20bd 7755 1dbc 3cff 4e3d 780e 2f3c
000003c0: aba5 85bc b035 883d ce7f 153d e24a 70bd
000003d0: 0348 083d b0e9 973b d2cb 183d 78c1 193c
000003e0: 6dbd 6dba 180f 233d 87c2 af3c 9e78 e6bc
000003f0: 35b3 34bc d34d c53c 0435 67bc 46d1 76bc

fc3.weight f4 [2, 300]
-0.14633636 -0.00074156147 4.8308873e-05 -0.008829627 -0.09298817 -0.037469525 0.09951785 0.21346956
-0.03120514 -0.04946381 0.023885794 0.027135555 -0.106616296 0.20344865 0.017370671 0.20974764
0.26320454 -0.018845819 0.3274558 0.09334409 0.031801518 0.295109 0.2722888 -0.10756674
-0.033837296 0.020144919 -0.07560563 -0.079311766 -0.024076866 0.030428406 -0.017903376 -0.03648309
0.017834524 0.2896291 -0.13770185 0.043128204 0.1151187 -0.13790427 -0.06417015 -0.20251873
0.002515631 -0.0366227 0.10467171 -0.04560281 0.03620726 -0.042411502 0.22381206 -0.13124011
0.022386156 0.20378017 -0.17514911 -0.023294264 0.06645475 0.0038479632 0.056296565 -0.10428393
0.19842298 -0.14787565 0.06324664 -0.10531011 -0.025578799 -0.07429018 -0.09183488 0.14911732
-0.17862251 0.080399126 0.01635927 -0.03763488 0.1480184 -0.1036566 0.18924545 -0.056153465
0.08918023 0.29728955 -0.005639369 0.038724005 -0.05994826 0.202173 0.3787783 -0.031340633
0.054151636 -0.00835619 0.22241628 0.1843042 0.05707132 0.13960579 0.081438586 -0.041203525
0.08136049 -0.05064951 0.05896174 -0.12029606 0.045343082 0.043884847 0.05672908 0.17840928
0.004765667 0.10912652 0.0347077 0.06175622 -0.1508407 0.011834747 -0.06115858 -0.1885399
-0.13527513 0.28488916 -0.065431915 -0.04603472 -0.047681227 0.33269513 0.048330918 0.102447815
0.3321777 -0.021152725 -0.06827174 -0.00094559963 0.14048195 -0.029880542 0.031574525 -0.13398162
-0.120499946 0.1352947 -0.06022131 -0.0550859 -0.12944743 0.047745947 -0.1253173 0.13856661
-0.062464736 0.17967609 -0.10499302 -0.032339733 0.2228758 0.029305702 0.2666369 -0.041036256
0.0846665 -0.07143791 0.05570732 0.26947343 -0.035254616 0.12416111 -0.06058278 -0.021767674
-0.029382551 -0.14382336 0.17641367 0.11452303 0.04638549 0.24208185 0.14506496 0.052439712
-0.0045900084 0.038895365 0.13276486 0.13620135 0.23395957 0.15520816 0.015028327 0.021752954
0.32169482 0.046086602 -0.04640414 0.3111139 -0.14914285 0.017947573 -0.067833394 -0.004079358
-0.05370659 -0.05971131 -0.09775098 0.065589786 -0.021999061 -0.10776968 -0.109811075 0.026654555
-0.024435498 -0.028042937 0.43250117 -0.04588606 0.13403249 -0.012656756 0.31648403 0.07368564
0.010161641 0.14523856 -0.13716403 -0.065145165 0.1406767 0.032951176 0.03274739 -0.12978695
0.012734133 0.052617628 -0.00756644 0.010812986 -0.018890558 -0.052680902 -0.12146686 0.158729
0.065385535 0.063159056 -0.040490363 0.012825177 -0.008006166 -0.009509955 0.0058132 -0.16816658
0.014207883 0.027737051 0.08342778 -0.069490775 -0.00055460114 0.08134788 -0.022115469 -0.022060242
-0.09287514 0.11314328 -0.10376493 0.0970936 0.24586888 0.30461434 -0.08532681 0.023130614
-0.010701903 -0.047977105 -0.027641786 -0.09913126 0.17990887 0.0006512287 0.03352882 0.23690256
0.04307862 0.06549924 0.14816885 0.052047092 0.078227036 -0.08717929 0.19305255 0.026917744
-0.056621734 0.018518537 0.037941925 0.05854937 -0.010001574 0.027486244 -0.1735871 -0.15390751
-0.1467609 0.024668077 0.024088169 0.22532517 0.08805355 0.09491826 -0.050634224 0.23019147
00000000: 33d9 15be 5965 42ba 429f 4a38 24aa 10bc
00000010: 9570 bebd a579 19bd 04d0 cb3d c497 5a3e
00000020: eca1 ffbc 909a 4abd 24ac c33c 624b de3c
00000030: a559 dabd d854 503e f04c 8e3c 16c8 563e
00000040: bfc2 863e 8c62 9abc 49a8 a73e 302b bf3d
00000050: 4f42 023d 8718 973e 7069 8b3e f34b dcbd
00000060: fa98 0abd f506 a53c 20d7 9abd 356e a2bd
00000070: d93c c5bc fe44 f93c 1aaa 92bc 4b6f 15bd
00000080: b519 923c 444a 943e b701 0dbe 33a7 303d
00000090: 5ac3 eb3d c736 0dbe a46b 83bd 1261 4fbe
000000a0: 49dd 243b af01 16bd 1f5e d63d 03ca 3abd
000000b0: 104e 143d afb7 2dbd fd2e 653e cf63 06be
000000c0: 2c63 b73c c0ab 503e 4a5a 33be 9dd3 bebc
000000d0: 6e19 883d 1c2e 7c3b 3a97 663d d092 d5bd
000000e0: 652f 4b3e b76c 17be 7487 813d d4ac d7bd
000000f0: a18a d1bc 7325 98bd ed13 bcbd 36b2 183e
00000100: d2e8 36be 4ca8 a43d e003 863c 0827 1abd
00000110: 2392 173e e949 d4bd 8fc9 413e 2d01 66bd
00000120: 20a4 b63d 5636 983e 75ca b8bb 109d 1e3d
00000130: 4f8c 75bd 7006 4f3e 3bef c13e 095f 00bd
00000140: 1bce 5d3d 67e8 08bc 18c1 633e 3dba 3c3e
00000150: 9ec3 693d d2f4 0e3e 46c9 a63d 07c5 28bd
00000160: 54a0 a63d dc75 4fbd de81 713d c85d f6bd
00000170: abb9 393d 99c0 333d c05c 683d ecb0 363e
00000180: 5029 9c3b ba7d df3d a929 0e3d 17f4 7c3d
00000190: fc75 1abe 87e6 413c 6b81 7abd 9b10 41be
000001a0: 9085 0abe fedc 913e 2b01 86bd e78e 3cbd
000001b0: 644d 43bd 0457 aa3e a4f6 453d 29d0 d13d
000001c0: 3213 aa3e 7b48 adbc 0ed2 8bbd 1ee2 77ba
000001d0: 80da 0f3e 0ac8 f4bc 4a54 013d 7a32 09be
000001e0: adc8 f6bd b28a 0a3e 9faa 76bd c1a1 61bd
000001f0: de8d 04be 4191 433d 2e53 00be 68e4 0d3e
00000200: 06db 7fbd 02fd 373e 9506 d7bd ab76 04bd
00000210: 8e39 643e 8312 f03c a284 883e a215 28bd
00000220: a165 ad3d 0a4e 92bd 5c2d 643d 6cf8 893e
00000230: 2567 10bd 2e48 fe3d a625 78bd 1f52 b2bc
00000240: adb3 f0bc 6e46 13be c9a5 343e 0d8b ea3d
00000250: b6fe 3d3d 4ee4 773e e98b 143e 06cb 563d
00000260: c867 96bb bf50 1f3d 83f3 073e 5e78 0b3e
00000270: 1993 6f3e e3ee 1e3e 5f39 763c 4033 b23c
00000280: 2fb5 a43e 4ec5 3c3d 4412 3ebd 524a 9f3e
00000290: e7b8 18be ca06 933c 3cec 8abd 23ac 85bb
000002a0: 71fb 5bbd d993 74bd aa31 c8bd f053 863d
000002b0: 6037 b4bc 5ab6 dcbd a1e4 e0bd a75a da3c
000002c0: f42c c8bc 4dba e5bc cb70 dd3e 05f3 3bbd
000002d0: d03f 093e 485e 4fbc 320a a23e 7fe8 963d
000002e0: 037d 263c 6bb9 143e ba74 0cbe d46a 85bd
000002f0: 8e0d 103e d0f7 063d 2122 063d dfe6 04be
00000300: d3a2 503c 9585 573d e6ef f7bb f328 313c
00000310: 5fc0 9abc eec7 57bd 9ec3 f8bd db89 223e
00000320: dae8 853d 8959 813d 39d9 25bd b120 523c
00000330: 4b2c 03bc a4cf 1bbc a87c be3b dc33 2cbe
00000340: 2ec8 683c d038 e33c 2fdc aa3d 2e51 8ebd
00000350: a762 11ba b899 a63d 802b b5bc aeb7 b4bc
00000360: 5235 bebd aab7 e73d b582 d4bd 02d9 c63d
00000370: 0dc5 7b3e 69f6 9b3e d3bf aebd 6a7c bd3c
00000380: 0957 2fbc a483 44bd 0771 e2bc 5405 cbbd
00000390: 083a 383e 38b7 2a3a 8455 093d 9696 723e
000003a0: 3573 303d 7724 863d 93b9 173e 552f 553d
000003b0: 7f35 a03d 0e8b b2bd 91af 453e 9a82 dc3c
000003c0: 31ec 67bd 30b4 973c fe68 1b3d 77d1 6f3d
000003d0: a4dd 23bc d52a e13c d1c0 31be ee99 1dbe
000003e0: 7d48 16be b514 ca3c 8d54 c53c a4bb 663e
000003f0: 6b55 b43d 8164 c23d d565 4fbd 50b7 6b3e

fc3.bias f4 [2]
-0.011233235 0.03963002
00000000: 9a0b 38bc 1653 223d
