tennis/checkpoint_critic.pth (torch_old, 525744 bytes, 5 tensors)

fcs1.weight f4 [400, 24]
000000 9f b0 79 3c 64 fb b6 3d a8 a9 02 bc 6c c2 50 bc
       0.015239864 0.08934668 -0.0079750195 -0.012741666
000010 08 19 7e 3c f8 51 dc bd 2e b0 b1 ba 9a 8c f6 3b
       0.015508898 -0.10757822 -0.0013556534 0.007524085
000020 30 44 c3 3d 5f 27 09 3e b3 c0 83 bc 8d 78 00 bd
       0.0953449 0.13393925 -0.016083097 -0.031364966
000030 7d 5e 9e 3d 8f 7e 98 bd df 46 22 bb 03 58 ad 3c
       0.07732866 -0.07446014 -0.002476148 0.021160131
000040 eb 76 23 3e 41 f4 c9 3d b8 b0 1e bd cd 09 33 3d
       0.15963332 0.09861041 -0.03874275 0.04371052
000050 ab 6c bc bd cd 5b 8b bd 89 d2 f2 3b c7 9e ca 3c
       -0.09200414 -0.06804619 0.0074103517 0.024733914
000060 48 c4 6b 3d d4 f4 a7 3d 07 b3 c9 bb 94 e5 45 bd
       0.057560235 0.08200994 -0.006155375 -0.048314646
000070 88 20 90 3d fd 2b 04 be 0e c8 eb 3b 7a 4d ba b9
       0.07037455 -0.12907405 0.0071954792 -0.0003553441
000080 28 2a 87 3c 58 23 f7 3d 6e d3 22 bd 30 f0 02 3c
       0.016499594 0.12067288 -0.039752416 0.0079918355
000090 b4 ad 7b bc 2e 19 1a be 26 25 de 3c 89 18 22 bd
       -0.015361238 -0.15048668 0.027117323 -0.03957418
0000a0 92 ae 24 3e 45 f1 96 3d ca 54 c2 b9 8e 68 70 3c
       0.16082218 0.07370237 -0.00037065736 0.014673365
0000b0 ae 2b 8d bd be 9f 43 3c 3a 76 ef bc 27 c9 08 bd
       -0.06893097 0.011939941 -0.02923118 -0.03339496
0000c0 e9 45 77 3d 69 34 10 3e df d0 ea bc ab 5f cf 3c
       0.060369406 0.14082493 -0.02866405 0.025314173
0000d0 33 0d c7 3d 52 b5 30 be bc 41 00 3d 2f 1e 87 bc
       0.097193144 -0.17256668 0.03131269 -0.016493885
0000e0 4b 9b 0a 3e 95 eb 22 3e b5 92 2d 3b b1 0f b3 3d
       0.13535802 0.1591018 0.002648515 0.08743227
0000f0 ef 0a 26 3d d8 51 37 be 66 f9 1a bd fb db 1d 3c
       0.04053777 -0.17902315 -0.0378355 0.009634967
000100 90 b3 58 3e bf 25 88 3e e4 3c 5b bc a9 8f ee 3c
       0.21162248 0.26591298 -0.013381217 0.029121237
000110 46 aa 6d be 91 9d 98 bd ea 7c 00 bc ed 82 97 bc
       -0.23209485 -0.074519284 -0.007842282 -0.018495047
000120 d9 ba 71 3e bb 8b 07 3d 93 45 1a 3d 18 81 41 be
       0.23606433 0.03309224 0.037664007 -0.18896902
000130 64 6c 82 bd 07 7e ba be 6f 1f 30 3d d7 4d 51 be
       -0.0636833 -0.36424276 0.042998727 -0.2043985
000140 e2 55 80 3e 18 75 b7 3d 05 77 81 bd ce aa 05 3e
       0.25065523 0.08957881 -0.06321529 0.13053438
000150 6d 85 88 bd d7 85 8f be 3a 6d db 3a 38 88 1c 3e
       -0.06666074 -0.280318 0.0016740926 0.15286338
000160 cf 3b 90 3e 1c d0 66 3d fd 84 5b bd e2 d0 56 3c
       0.2817063 0.056350812 -0.053593624 0.013111325
000170 08 fa f5 bd 2d 04 f1 be 98 70 aa bd 56 14 b6 3d
       -0.1201058 -0.47073498 -0.08322257 0.088905975
000180 76 d0 ab bc 65 cb 2a 3e 45 0d d7 3c a0 d2 ed ba
       -0.020973425 0.16679151 0.026251445 -0.0018144436
000190 90 19 f2 3d bd b5 e3 3e bf 13 aa bc 1e 45 55 bc
       0.11821282 0.44474593 -0.020761369 -0.013016967
0001a0 f4 fc a9 3c bd e3 a8 3d b4 d4 1c bd 84 7b cc 3c
       0.0207505 0.08246563 -0.038288787 0.02496124
0001b0 fd 3f 80 3d bb 4e 6f 3e 16 2a 11 3d f5 7d e5 3b
       0.06262205 0.23369877 0.035440527 0.0070035406
0001c0 c4 f3 c5 bc 32 e6 12 3e 40 69 0a bd c4 dc 8e 3d
       -0.024164088 0.14345625 -0.03379178 0.069757015
0001d0 9c a9 f3 bd b5 b1 ae bf 3b 35 73 bd 67 f2 63 3d
       -0.11897585 -1.3647982 -0.059376936 0.055651095
0001e0 09 23 03 3f 51 96 38 bd eb 3f 1a 3c 36 7c 8b 3d
       0.51225334 -0.045065228 0.009414653 0.06810801
0001f0 f4 f1 e5 3c d1 cb c4 bc af 2d b2 3b c7 9a 8d 3d
       0.028069474 -0.024022968 0.005437575 0.06914287
000200 9e 83 a6 3e ee 51 4e be 11 ae 3a bd 86 06 28 3d
       0.3252229 -0.20148441 -0.04557616 0.041021846
000210 f7 2f 90 be 04 2e 48 3d c3 e8 d2 ba 83 f5 9a bc
       -0.28161594 0.04887201 -0.0016091097 -0.018915897
000220 56 a4 89 3e 78 82 80 be 47 5f 49 bc 39 f4 42 be
       0.2688319 -0.2509954 -0.012290782 -0.19038476
000230 cd 60 07 bf c3 ed c3 bd a7 10 2c bc d7 a4 1c be
       -0.5288208 -0.09566834 -0.010502017 -0.15297256
000240 a1 69 03 3e d1 5c 5b 3e 69 80 c0 3b da 3b 87 3a
       0.12833263 0.21422125 0.0058746827 0.001031752
000250 eb b9 70 bb 7b 1b 2d be e9 60 e8 39 15 07 41 bb
       -0.003673191 -0.16905014 0.00044322692 -0.0029453684
000260 19 a9 8c 3c 56 56 9f 3d 28 c0 1b 3c 64 25 64 3a
       0.017170476 0.07780139 0.009506263 0.00087030814
000270 05 0b a9 3d 40 c8 5b be b1 a9 0f bb ef c3 2c 3b
       0.08254055 -0.21463108 -0.0021921212 0.0026361903
000280 02 23 9a 3d 12 3f 0b 3e 40 ff 48 3b b9 ce 8b 3b
       0.075262085 0.13598278 0.003066972 0.0042665866
000290 6e 36 e1 bd d9 d0 f6 bc 10 d3 0a 3b 1e 4b 66 3d
       -0.1099671 -0.030128883 0.0021182932 0.05622398
0002a0 09 96 9d bd a3 67 0f 3e f5 82 17 3c 42 27 2b 3b
       -0.076946326 0.14004378 0.009247531 0.0026115929
0002b0 4e 53 13 bd 74 bc 73 be 43 55 df bb 8b 3c af 3b
       -0.035968117 -0.23802358 -0.006815584 0.0053477935
0002c0 21 2f d3 3c 1a 4a 9d 3d 94 79 41 bd 56 ae ab 3c
       0.025779309 0.076801494 -0.047235087 0.020957153
0002d0 2d 3a a7 3a eb 92 4f bd 47 51 16 3d 60 35 b9 bc
       0.0012758427 -0.05067722 0.036698606 -0.022608459
0002e0 e4 58 1d 3e ef f6 a9 3d a2 e7 ba 3c 4c 4e 25 3c
       0.1536594 0.08299052 0.02281553 0.010089468
0002f0 aa c8 eb 3a 98 be 23 3e a3 2e 33 bd 64 68 6f 3d
       0.001798888 0.15990674 -0.043745648 0.058449164
000300 a5 54 f2 bd 9a e5 c5 3e 07 42 73 ba c6 d2 1a bd
       -0.11832551 0.38651735 -0.0009279553 -0.037798665
000310 4b 10 d4 3c f9 4b 2d be ef 1b 81 3b e7 c6 5a bd
       0.025886675 -0.16923513 0.0039400975 -0.053412344
000320 74 b1 8a bd 90 43 b7 3e 22 e7 08 bd 29 e9 80 be
       -0.06772128 0.35793734 -0.03342355 -0.25177887
000330 23 62 a9 3e 35 0b 0d bf a9 69 02 bc af b0 34 be
       0.33082685 -0.55095226 -0.007959762 -0.17645524
000340 00 b8 89 bc 45 35 a9 3e d2 2c 44 bd eb 37 3e bd
       -0.01681137 0.33048454 -0.047894306 -0.046440046
000350 e1 4a 58 3d d4 20 16 bf a1 d3 d5 3c 89 cd 0a bd
       0.052805785 -0.5864384 0.02610189 -0.03388742
000360 39 1f 48 3e ad 04 b7 be d0 78 b5 bd 91 6c 9b 3d
       0.1954316 -0.35745755 -0.08860934 0.07589067
000370 a9 90 c0 3e 21 3e 90 3d 59 4e 83 bc 1e 8d d5 3d
       0.37610367 0.070431 -0.01602857 0.104273066
000380 a2 ba 95 3e 46 fd be be 22 3e 29 bb 45 e8 ae bd
       0.29243952 -0.37302607 -0.0025824388 -0.08540396
000390 60 da 91 3e 57 59 15 be 29 1b e2 bc 43 e4 16 be
       0.2848692 -0.14584862 -0.027600842 -0.14735512
0003a0 fa 8c c6 3e 70 2e 62 be 97 85 9e bd 7f e7 6e 3e
       0.38779432 -0.22088027 -0.07740324 0.23330496
0003b0 30 36 34 be 80 8b ac bd a4 37 92 bc ed 1d 4c 3e
       -0.17598796 -0.08425045 -0.017848797 0.19933291
0003c0 94 5c e4 ba b0 27 ce 3d 16 f0 0a bb 1b ad 68 bd
       -0.001742261 0.100661635 -0.0021200231 -0.05680571
0003d0 64 1e 37 bc 1e b8 58 bd 1b a6 69 bc 31 04 61 bc
       -0.011176679 -0.052909963 -0.014260794 -0.013733909
0003e0 ad 2e 9b 3d e4 3f f9 3d d1 74 a2 3c 14 c8 2b bc
       0.07577262 0.12170389 0.019831093 -0.010484714
0003f0 66 73 d5 3c c4 4a af bc 2e 65 04 bd 86 9d e2 bc
       0.026056003 -0.021397956 -0.032323055 -0.027663004

fcs1.bias f4 [400]
000000 f3 f9 73 be 67 0a db be 1a 34 10 bf 85 63 26 3d
       -0.23825817 -0.42781374 -0.563295 0.040622253
000010 d6 ba 24 3e 4a 74 0e 3e da 67 1c bf 49 73 1d bf
       0.16086897 0.13911548 -0.61095965 -0.61504036
000020 72 08 f4 be ea 88 1f bf 3f e4 f0 be 8b bc 2b bf
       -0.47662693 -0.6231829 -0.47049138 -0.6708457
000030 0f 74 ac bd 79 43 65 be 6d 57 b6 be 34 d5 27 bf
       -0.08420574 -0.2238902 -0.35613576 -0.655597
000040 c4 f0 11 bf b9 f6 22 bf d1 49 21 bf e3 a0 88 3e
       -0.57008004 -0.6365772 -0.6300326 0.26685247
000050 42 ba e3 be c0 84 26 3e 0c c7 1c bf eb 09 80 be
       -0.4447804 0.16261578 -0.6124122 -0.25007567
000060 3d dd 3a bf b9 de 08 bf 0f f0 03 bf f5 c6 d7 be
       -0.7299383 -0.5346485 -0.51538175 -0.4214398
000070 81 86 bd be a8 1e 30 bf 47 a2 9c be 0b 97 03 be
       -0.3701668 -0.6879678 -0.30592558 -0.12850587
000080 10 72 e9 be 91 05 b9 be e0 f4 b0 be 46 5c e6 be
       -0.45594835 -0.3613706 -0.34561825 -0.44992274
000090 ba 9b a5 be 9a 5d 24 bf c2 49 81 be 28 63 03 bf
       -0.32345372 -0.64205325 -0.25251585 -0.51323175
0000a0 37 66 fa be 0b 12 1d bf d6 b1 b6 be b0 3f 10 bf
       -0.4890611 -0.61355656 -0.35682553 -0.5634718
0000b0 92 41 de be 0c 31 76 be df 7f f3 be 48 7d cc 3e
       -0.434094 -0.24042147 -0.47558495 0.39939332
0000c0 2a a7 93 be 2a 11 18 bf 6b 27 0a 3d ef 50 d2 be
       -0.28838474 -0.5940119 0.033729 -0.41077372
0000d0 d6 9e 9c bd fa 67 ed be 66 5a 0d bf fb 72 48 be
       -0.07647483 -0.4636839 -0.5521606 -0.19575112
0000e0 bf 0a 14 bf d6 23 66 be 3a 67 de bc b1 cc be be
       -0.578289 -0.22474608 -0.027148832 -0.37265542
0000f0 9b 9f b5 be 9e 84 b5 be 81 ca 0a bf 2d 69 ac bd
       -0.35473332 -0.3545274 -0.54215246 -0.08418498
000100 d7 86 e5 be 35 59 be be 0e 49 fc be 98 e9 84 be
       -0.44829437 -0.37177435 -0.49274486 -0.25959468
000110 77 f3 19 bf 14 f9 d4 be dd 72 05 bf c2 4c d3 be
       -0.6013712 -0.41596282 -0.5212839 -0.412695
000120 86 32 c2 3d 43 b9 ae be d0 44 07 bf f8 59 dc be
       0.09482293 -0.34125718 -0.52839375 -0.4303739
000130 9e aa 0a bf c6 a5 05 bf d4 5f dd be ea 2a 9a be
       -0.5416659 -0.52206075 -0.43237174 -0.30110866
000140 6f a8 41 be e1 aa f4 be 7a 32 11 bf 8c e3 58 bf
       -0.18911909 -0.4778662 -0.56717646 -0.8472221
000150 65 3e 03 bf 14 90 1a bf 97 53 a1 be b6 8b 3d bf
       -0.5126708 -0.60376096 -0.31509086 -0.74041307
000160 10 55 19 bf e7 8b 84 bd 54 3c eb be 29 a5 10 be
       -0.5989542 -0.06471997 -0.45944464 -0.14125504
000170 07 c7 f3 be 81 3c 02 bf 39 32 f8 be 25 f6 b5 be
       -0.47612783 -0.5087357 -0.48475817 -0.35539356
000180 15 70 fd be 7f cb 00 bf af 94 ad be 46 9a cc be
       -0.49499574 -0.5031051 -0.339025 -0.3996145
000190 4b 1d d5 be 58 fe 2b bf c6 05 a4 be a2 ce 10 bf
       -0.4162391 -0.6718497 -0.32035655 -0.56565297
0001a0 f5 f5 cd be 08 1c dd be 29 74 52 3e 86 63 a2 be
       -0.40226713 -0.4318545 0.20552124 -0.31716555
0001b0 2e 39 a7 be 9b bb fa be 0c 6a ea be 9e 29 cb bd
       -0.32660812 -0.48971257 -0.45784032 -0.09920047
0001c0 07 a2 80 be cb 02 2b be 34 53 c5 be 77 6a e9 bd
       -0.25123617 -0.16700284 -0.3854004 -0.1139726
0001d0 df e6 12 bf 7d df 07 bf 24 ff 74 bd 63 00 b1 be
       -0.5738353 -0.5307539 -0.059813634 -0.34570608
0001e0 8d 31 ab be 01 6a fa be b6 8e 29 be a7 af f2 be
       -0.33436242 -0.48909 -0.16558346 -0.47399637
0001f0 56 f6 1f bf fa af 48 3e e6 dd cc be 99 39 0f bf
       -0.62485254 0.1959838 -0.40013045 -0.5594726
000200 8b 6f 88 3e 55 b6 fa be ed 13 99 be 6f e0 01 bf
       0.266476 -0.48967233 -0.29898015 -0.50733083
000210 43 4d bb be b1 e3 e8 be 1b 63 b1 be 9e 9e 26 be
       -0.36582384 -0.45486215 -0.34645924 -0.16271445
000220 ab dc b4 be 6b 7a 88 be 50 6f 58 bc 8e 19 4e bf
       -0.35324606 -0.26655897 -0.013210133 -0.80507743
000230 29 ae 00 bf 9b 01 d6 be f0 04 c4 be cd 59 12 bf
       -0.5026575 -0.417981 -0.38285017 -0.57168275
000240 42 99 ba be ac e5 67 be fc 66 80 3d d0 32 18 bf
       -0.3644505 -0.22646207 0.06269643 -0.59452534
000250 82 5a e9 3d b2 31 a2 be 4c 11 01 bf 1e ff da be
       0.11394216 -0.3167854 -0.5041702 -0.42772764
000260 c1 9b 1e 3e 5c c3 d5 be a5 17 07 3f 62 a9 16 bf
       0.15489103 -0.4175061 0.52770454 -0.5885221
000270 28 07 37 bf 13 70 ff be f4 9e 41 be 88 c3 62 be
       -0.71495295 -0.49890193 -0.18908292 -0.22144902
000280 66 b5 59 be 54 7b f8 be ca 05 a7 be 2f 62 e0 be
       -0.21260604 -0.48531592 -0.32621604 -0.43824908
000290 19 4f 99 be d9 6c 7b be 01 d3 d4 3c 88 eb 79 bc
       -0.2994316 -0.24553241 0.02597952 -0.015253909
0002a0 a4 10 ba be d7 13 e2 3d 6a b2 c3 be 91 e4 f8 be
       -0.3634082 0.110389404 -0.38222057 -0.48611882
0002b0 62 2c 03 bf 02 6d d2 be 74 a5 f6 be 46 ca f8 be
       -0.512396 -0.4109879 -0.48173106 -0.48591822
0002c0 c7 2d f0 be 0b b5 d9 be 65 04 53 be 9e 5d a7 bd
       -0.46909925 -0.42520937 -0.20607145 -0.08172153
0002d0 6b 68 73 be c9 e9 8d be 18 ec 0b bf 96 ca 15 bf
       -0.23770301 -0.27717426 -0.54657125 -0.58512247
0002e0 13 ab 49 be 8e cf 06 bf 72 63 30 bf fa 57 23 bf
       -0.19694166 -0.52660453 -0.6890174 -0.63806117
0002f0 e6 a8 86 bd 60 05 a3 be 6a 89 98 be c7 9b c2 be
       -0.065751836 -0.31840038 -0.2979234 -0.38009474
000300 ab d4 c8 be 37 31 ff bd 9c 89 eb be 86 5d 83 be
       -0.39224753 -0.12460559 -0.46003425 -0.2565729
000310 1d 77 4b be 07 69 2f bf 1b dd bd bd df f7 23 bf
       -0.19869657 -0.68519634 -0.09270688 -0.64050096
000320 44 7e 1a bf 06 a1 bb be 07 78 18 bf 7a 07 d2 bd
       -0.60348916 -0.3664629 -0.5955815 -0.10255332
000330 ef 26 1c bf 87 88 e1 be 12 01 17 be ad d5 c6 be
       -0.6099691 -0.44049475 -0.14746502 -0.38834897
000340 c2 83 28 3e d3 c5 0c bf f2 b9 30 be 42 a9 00 bf
       0.16456512 -0.54989356 -0.17258433 -0.50258267
000350 9e 97 0b be e1 78 c0 be 69 2a c7 be bd 58 a3 bd
       -0.13632056 -0.37592223 -0.38899544 -0.0797591
000360 96 e7 41 bf 03 b1 06 bf 58 7a 98 be 28 93 35 3e
       -0.75744 -0.5261385 -0.2978084 0.17731917
000370 50 0d 1c bf 0e 2b 89 bd a1 e0 f4 be e2 40 3e bf
       -0.60957813 -0.06697665 -0.47827628 -0.74317753
000380 22 29 c4 3d cd 75 05 bf 06 ca ba be 7e 99 07 bf
       0.09578158 -0.52132875 -0.36482257 -0.52968585
000390 06 d3 a7 be 86 3c 2d bf eb cf 92 be 08 a6 47 be
       -0.32778186 -0.67670476 -0.28674254 -0.1949693
0003a0 f0 0f cc be dd 2c ee be 01 c5 0a bf 97 2b bc be
       -0.3985591 -0.46518603 -0.54206854 -0.36752006
0003b0 c3 81 ca be 8a 9d 9d be c2 fc d5 be 0c 51 21 bf
       -0.39552125 -0.30784255 -0.417944 -0.6301429
0003c0 e5 08 d0 be 5c 1c bf be 04 e1 f7 be 77 f1 1a bf
       -0.40631786 -0.37326324 -0.4841386 -0.60524696
0003d0 23 08 18 be a6 4a d9 be 6e 01 c9 be 37 bd be be
       -0.14846854 -0.42439765 -0.39258903 -0.37253734
0003e0 1b 5e 19 bf 05 2b 30 bf 0f 36 33 bf 80 66 0a bf
       -0.5990922 -0.6881564 -0.7000436 -0.5406265
0003f0 6a b5 c3 be 35 77 89 be c0 9a a3 bd 03 02 ad be
       -0.38224345 -0.2684876 -0.079885006 -0.33790597

fc2.weight f4 [300, 402]
000000 31 3d 1c bd 1a 98 e8 bb fa 9e 2d bc 6d 9b 0f 3d
       -0.038144294 -0.00709821 -0.010596985 0.035060335
000010 29 5d bb bd e9 06 f3 bd 5f c0 4d 3d 58 dd d0 bd
       -0.09148628 -0.118665524 0.050232287 -0.10198468
000020 d5 9c fb 3b 71 bc 96 bd cd 06 b3 3c 06 14 4e 3d
       0.007678608 -0.07360161 0.021853829 0.050312065
000030 e2 d3 24 3d 40 c8 69 bd c2 bd 5d 3d 60 cb 76 3d
       0.04024113 -0.05707574 0.054136045 0.060252547
000040 ac 38 87 3d 63 a6 da bb 18 5e 03 bd f2 0d e1 bc
       0.06602606 -0.006672667 -0.032072157 -0.02747247
000050 c8 88 83 bc d8 cd 4f 3d 87 de 2e 3d 7b 71 2c bd
       -0.016056433 0.050733417 0.042692687 -0.04210041
000060 4a 31 e3 3c 68 0e b5 bd 0e cf a3 bc 94 8f ef 3c
       0.027733464 -0.088406384 -0.019996192 0.029243268
000070 45 e9 74 3d 27 35 c2 3d f2 95 c7 3c cb f3 56 3b
       0.059792776 0.09482794 0.024363492 0.003279912
000080 16 91 ad bd 16 74 16 bc 9f b3 51 3c 25 7b 47 3d
       -0.084749386 -0.0091829505 0.012799173 0.048701424
000090 42 b9 7c bd 1d 04 8d 3d a7 20 58 3c a7 fe 0d bd
       -0.061700113 0.0688555 0.013191379 -0.034666684
0000a0 3f 3e 6a 3d 20 37 e6 3d 51 d9 e3 bc 67 47 0e bd
       0.05718827 0.11240983 -0.027813585 -0.034736063
0000b0 f8 85 6c 3d 11 ca 27 3d f4 33 a4 3c 84 0e b9 bd
       0.05774495 0.04096419 0.020044304 -0.09035972
0000c0 15 9d 47 bd 47 f3 ca bb 76 96 29 3c 81 07 15 be
       -0.04873379 -0.0061935517 0.010350814 -0.14553644
0000d0 31 4b 32 bd a4 32 96 3c 81 9e d3 3d a1 20 08 bd
       -0.04352874 0.018334694 0.103329666 -0.033234242
0000e0 d8 0b 26 3d 27 82 b7 3c 98 33 ac 3d ce fa c6 bc
       0.04053864 0.022400929 0.08408278 -0.024289515
0000f0 40 58 6b 3a 46 52 09 3d c2 48 05 bd 4f 43 6a bd
       0.0008977689 0.033525728 -0.03254009 -0.057193097
000100 e7 c8 08 bb c1 8c e7 3d 13 cc 8f bc dc 8f ea 3c
       -0.00208717 0.113061436 -0.017553365 0.02863305
000110 f7 f7 26 3d 40 a3 6b 3c b5 87 0a 3d 00 2a ae bd
       0.04076382 0.014382184 0.033820827 -0.085041046
000120 a5 0b 45 ba 3b aa 22 bc 7a d0 69 bc 4e 47 10 bc
       -0.0007516689 -0.009928281 -0.014270896 -0.008806063
000130 6d d9 1c 3c d8 32 15 bd 2b 38 68 3c 35 5a 47 3d
       0.009573323 -0.03642544 0.014173548 0.048670013
000140 5c ab 8f 3c b2 99 82 3d c0 4c 9f 3d 1f 56 d5 3c
       0.017537765 0.06376971 0.07778311 0.026042042
000150 1f 3f 69 3b 2b cb 25 3d 41 27 89 3d d0 bd b6 3c
       0.0035590602 0.04047696 0.0669694 0.022307307
000160 13 e0 b0 bd 78 24 40 3c ef 53 a3 3c 0d f1 de bd
       -0.08636489 0.011727445 0.019937484 -0.108858205
000170 e7 bd 4f 3c f9 bf 46 bc 71 06 c0 bc 81 cd 89 bb
       0.012679554 -0.012130731 -0.023440572 -0.004205406
000180 ce 8a 93 bd ef c6 56 3d 4e 88 a2 bc 21 4f 32 3d
       -0.07204209 0.05243581 -0.019840386 0.043532494
000190 4e f8 0c bd 40 3f 18 bd 3c 31 58 3d 51 8f a2 3c
       -0.03441649 -0.037169695 0.05278133 0.01984373
0001a0 df 6a 2d bc cd 51 84 3d 59 bd 4b 3c 20 5c 5a bd
       -0.010584562 0.06460915 0.012435281 -0.053310513
0001b0 63 bd a8 bd 82 26 be 3d 40 6b 5a 3d 09 0e a5 3d
       -0.08239248 0.092846885 0.053324938 0.080593176
0001c0 b1 53 ae 3c 21 37 1b bd f2 fa 68 bc ed d9 c6 3b
       0.021280142 -0.037894372 -0.014219986 0.0060684592
0001d0 47 4b 30 3d e8 83 b0 3b 61 e6 2f bd ab 98 fa 3c
       0.04304054 0.005386818 -0.042944316 0.030590376
0001e0 a9 12 f2 39 0b 44 80 3d 15 22 29 3c 94 03 6f bd
       0.0004617174 0.06262978 0.010323067 -0.05835302
0001f0 a0 5a 90 ba b3 eb 71 3d 6d 46 ad 3c a5 5d 48 3c
       -0.0011013336 0.05906267 0.021151746 0.012229358
000200 36 7f 89 bc 79 65 a7 bd 4e 22 8d 3d e2 b0 72 3d
       -0.016784292 -0.08173651 0.06891309 0.05925072
000210 89 93 02 bd 3e b8 00 3d 58 86 58 3d d1 4d 72 bb
       -0.03187898 0.031425707 0.052862495 -0.0036972652
000220 cb 79 04 3c 4a 14 c9 3c 46 d4 87 bc d0 cc d6 bc
       0.008085678 0.024545807 -0.016580712 -0.02622071
000230 ab a2 98 3d 73 05 3f 3d 92 ce 33 3d 49 f4 fe 3c
       0.074529015 0.046636056 0.043898173 0.031122344
000240 73 a1 28 bd 8f 2e 12 bd 56 a8 0c bd d0 58 4e bd
       -0.041169595 -0.035688933 -0.034340225 -0.050377667
000250 c8 44 46 3d 51 80 4b bc c2 23 8e bd 4c 8f 23 3d
       0.04840544 -0.01242073 -0.06940414 0.03993158
000260 32 83 cf bc 63 93 c6 3c f1 97 3d bc 4e fe 8c 3d
       -0.025331113 0.024240201 -0.01157187 0.06884442
000270 7f 30 26 bd 65 d0 52 3c 74 c4 65 bd 28 08 81 bd
       -0.040573593 0.012867068 -0.056095555 -0.06300384
000280 be ad a2 3d 85 3b 11 bd c1 6c 64 bd bb a7 22 bc
       0.07943295 -0.035457153 -0.05576778 -0.009927685
000290 8c ba 2a 3d 91 b6 a2 bc 89 14 05 3c c9 27 68 bd
       0.04168181 -0.019862445 0.008122572 -0.056678567
0002a0 13 09 48 bb b8 68 35 3c 8c 53 a1 bc 23 45 d6 bd
       -0.0030522987 0.01107233 -0.019693159 -0.104624055
0002b0 eb cb 34 3d 42 3b a1 3d 50 75 96 3d a1 fe d3 bc
       0.044139784 0.07872631 0.07346594 -0.025878252
0002c0 11 e9 b3 bc fc fe c2 bc f2 07 2a bc 9b 57 bd bc
       -0.02196172 -0.023803227 -0.010377871 -0.023113063
0002d0 cd 83 6a bd 0d f2 77 bd de 52 83 3d d3 f5 ad 3d
       -0.0572546 -0.060533572 0.0641229 0.08494153
0002e0 30 2f 72 3d d7 a6 0c 3c 16 eb e2 3c db 14 31 3d
       0.059127033 0.0085847 0.027699988 0.04323278
0002f0 52 21 50 bc 2f e4 9d bc 79 29 a7 3c ea e4 5d bd
       -0.012703257 -0.019273845 0.020405518 -0.054173388
000300 b3 11 92 3d 5c 2a 27 3c 06 c1 82 3d da b0 7c 3d
       0.07132282 0.01020297 0.063844725 0.061692096
000310 ea 5e 12 3d a6 8f c8 3c 22 47 e9 3c a2 10 d4 bc
       0.03573505 0.02448256 0.028476302 -0.025886837
000320 21 fb c6 bc c8 57 ff 3c b1 87 2d 3d d1 18 3b 3d
       -0.02428967 0.031169787 0.042365734 0.045677964
000330 e8 cf 89 bb ce d0 9f bc 99 19 c3 3d e0 0d be 3c
       -0.0042056926 -0.019508746 0.09526367 0.023199975
000340 8f 3e aa 3c 90 eb 4a bc be 20 0b bd 55 80 17 bd
       0.020781783 -0.012385264 -0.033966772 -0.03698762
000350 a9 55 a1 3b 1c 64 85 3d 7e 1b 21 bd a5 d2 3e bb
       0.0049235416 0.06513235 -0.03933286 -0.0029117253
000360 0a 7d 16 3d 60 20 3f 3c 3a c1 0c bd 7c 49 73 bd
       0.03674034 0.011665434 -0.034363963 -0.059396252
000370 18 76 8b 3d 82 dc a0 bc 0d 99 c4 3c 75 54 8d bd
       0.06809634 -0.019636396 0.023998762 -0.069008745
000380 88 2e e5 bc 11 47 d9 3b 3c 79 9e bc 67 ea 7e 3b
       -0.02797629 0.006630786 -0.019344918 0.003889704
000390 8e f4 97 3d 2d 8a 2a 3d 38 a2 22 bd 28 47 74 bc
       0.07419692 0.04163568 -0.039705485 -0.014909543
0003a0 7b 5e 87 3c 6b 51 b7 3d 54 bc 92 bb 34 1a 9e 3d
       0.016524544 0.08951076 -0.004478017 0.077198416
0003b0 9e 9a 76 3a 5d 7d ac bc 67 82 cd bc f6 94 17 bd
       0.0009407195 -0.021055872 -0.025086595 -0.037007295
0003c0 ab b0 98 3d 2e 87 a4 3c 9a a9 f5 bb b0 b4 b8 3d
       0.07455572 0.02008399 -0.0074970247 0.090188384
0003d0 19 d5 cf bc a0 33 02 bd 2d 1d 12 3d 6d 75 b8 3d
       -0.025370168 -0.031787515 0.035672355 0.09006772
0003e0 f3 54 a7 bc 3a fc 63 3d 24 a3 fa 3c bf 54 43 3d
       -0.02042625 0.055660464 0.03059537 0.047688242
0003f0 5d 2d 18 3d c8 7d ac 3d d1 e6 e1 bd b6 c9 92 bd
       0.037152637 0.08422428 -0.11030353 -0.071673796

fc2.bias f4 [300]
000000 8e 11 21 be ef 58 d4 bd d2 fb 1b be 78 7d 57 be
       -0.15729353 -0.10368525 -0.1523278 -0.21043956
000010 70 b5 3b be 18 e0 22 be 52 57 19 be 23 a7 fc bc
       -0.18330932 -0.15905797 -0.14974716 -0.030841416
000020 d2 b3 71 bd 9c ae a8 bd cf b3 3b be c1 3d 1b be
       -0.05900938 -0.08236429 -0.1833031 -0.15160276
000030 2c 64 0f be f8 81 45 3c 24 4b 80 be f3 19 07 be
       -0.14003056 0.012054913 -0.25057328 -0.13193493
000040 87 00 6b bd 3a 17 11 be 88 8f 33 be bb a8 08 be
       -0.05737355 -0.14169016 -0.17535222 -0.13345616
000050 2e 72 2f be 5d 8b 52 bd d7 06 e6 bd f9 35 2b be
       -0.171334 -0.05140244 -0.11231773 -0.16719808
000060 84 dd f8 bd bb 8d 36 be ff bf 2f bc 1e 78 11 be
       -0.12151626 -0.17827503 -0.010726928 -0.14205977
000070 8b cb 03 be 8a df 29 be d7 40 c0 bd bb 8b 19 be
       -0.12870614 -0.1658918 -0.09387367 -0.14994709
000080 58 c3 f7 bd 9c 0c 36 bc 26 1f 3a be c6 e2 aa bd
       -0.12097806 -0.011111405 -0.18175945 -0.08344035
000090 af 9f 11 bf d2 de d5 bd b2 8b 25 be dc f7 5b be
       -0.5688428 -0.1044289 -0.16166571 -0.2148127
0000a0 21 1e af bd 9c 3a 41 be 04 2a fb bd 49 1b da bd
       -0.085506685 -0.18870014 -0.12263873 -0.106497355
0000b0 df 74 53 be cf 00 3b bd 1f 5f 0e be f7 37 43 be
       -0.20650052 -0.045655068 -0.13903473 -0.19064318
0000c0 34 e0 46 be 1d 73 3b be 5b e9 91 bd 71 cf 52 be
       -0.19421464 -0.18305631 -0.07124587 -0.20586945
0000d0 a9 fb 06 be f6 96 f0 bd 97 6d 26 be 26 3d c4 3e
       -0.13181938 -0.117475435 -0.16252743 0.38327903
0000e0 bf b8 26 be 92 88 22 be 6f 78 16 be b9 ed a5 bd
       -0.16281413 -0.1587241 -0.1469438 -0.081019826
0000f0 d9 fe 07 be d0 33 01 be f9 54 86 bd d6 80 a1 bd
       -0.1328081 -0.12617421 -0.06559176 -0.07885902
000100 31 5d e2 bd a1 36 26 be 3b 8f c2 bd 37 aa 3f bc
       -0.11052931 -0.16231777 -0.09499975 -0.011698297
000110 8d 77 6c bc 60 7c df bd 31 41 df 3d 37 22 2c be
       -0.0144328 -0.109123945 0.10901106 -0.16809927
000120 7f 15 51 3d 8b f1 24 bd 08 b7 fe bd 14 80 e7 bd
       0.05104589 -0.040269416 -0.12437254 -0.11303726
000130 cc f9 54 bd cf 2b 17 be f3 86 5f bd 3d de 2d be
       -0.051996037 -0.14762805 -0.054572057 -0.16979308
000140 32 b2 4d be 0d 91 11 be 0c 6a 05 3e 9e f6 2d be
       -0.20087507 -0.14215489 0.13028735 -0.16988608
000150 d4 84 34 be fd ce a7 bd db 7c 9a 3d 19 d1 09 be
       -0.17628795 -0.08193777 0.075433455 -0.1345867
000160 6b fe 06 be 82 95 f2 bd 4c cc c2 bd 7f f3 d7 3d
       -0.1318299 -0.118449226 -0.09511623 0.1054449
000170 a2 f3 41 be bc 0f f1 3d 8b 82 1a be 53 4f 8c bc
       -0.18940595 0.11770579 -0.1508886 -0.017127668
000180 65 af 36 be ae 4e b6 3d ae 2a 6b bd 18 86 66 be
       -0.17840345 0.08901726 -0.05741375 -0.2251209
000190 82 f1 ee bd 85 6e 42 be 64 10 81 bd 21 e8 f8 bd
       -0.11667158 -0.18987472 -0.063019544 -0.1215365
0001a0 a7 b2 c0 bd 3a 09 fa 3d a4 17 6c be 24 53 41 be
       -0.09409075 0.12208791 -0.23055893 -0.18879372
0001b0 6f f3 8b bd 9e 5e 64 bd 96 94 d6 3a 82 c7 17 be
       -0.06833541 -0.055754296 0.0016371186 -0.148222
0001c0 b5 78 36 bd a4 9b ba bd ee 5d e4 bb 93 40 41 be
       -0.04454871 -0.09111717 -0.006969205 -0.1887229
0001d0 df 23 1c be 18 43 c9 bd 63 20 03 be 11 f8 48 be
       -0.15248059 -0.0982725 -0.12805323 -0.1962588
0001e0 5d 7f 08 be f0 6e 2e bd c3 63 c6 bd a2 4f cc bd
       -0.13329835 -0.042586267 -0.09686997 -0.09976126
0001f0 84 52 e7 bd 0d c1 c4 bd 70 2e 1b be 24 83 68 be
       -0.112950355 -0.09607134 -0.15154433 -0.22706276
000200 5c c8 87 bd 9a da 2f be 3e b9 4c bc d0 cc 4a bd
       -0.066300124 -0.17173234 -0.012495337 -0.04951173
000210 5f be be bd ef 67 68 be fe aa 21 bc 08 88 cf bd
       -0.09313654 -0.22695898 -0.009867428 -0.10133368
000220 27 5e ee bd 98 47 ce bd 63 41 ff bd 8f d8 da bc
       -0.11639052 -0.10072249 -0.124636434 -0.026714591
000230 a7 bd 7e be fa 5a 9e 3d d8 a4 b5 bd fc c7 ad bd
       -0.24877034 0.07732196 -0.08869332 -0.084854096
000240 17 b2 e9 bd d0 8a 13 be ab 3a c4 bd b4 86 08 be
       -0.11410921 -0.14408422 -0.095815025 -0.13332635
000250 66 f6 49 be 3e b3 ce 3d 6a 11 07 be 54 93 8b be
       -0.197229 0.100927815 -0.13190237 -0.2726084
000260 3d 28 6e 3e fd 9f 86 bd 5a 77 a2 bd 8a 41 09 be
       0.23257537 -0.06573484 -0.07932921 -0.13403907
000270 45 08 16 be 44 0e 87 3e 16 d7 1a be 2e 54 b3 be
       -0.14651592 0.2637807 -0.15121111 -0.35025162
000280 53 07 46 be 1c 44 c9 bd 2a 6e 25 be 32 aa a8 bd
       -0.19338731 -0.09827444 -0.16155306 -0.08235587
000290 3f be 48 be 8b 33 e5 bd a6 9e 58 bd ff 3e 1e be
       -0.19603823 -0.11191472 -0.052885674 -0.15453719
0002a0 2b ad 61 be 0f 0b ea bd d8 ba e8 bd 3d d5 14 be
       -0.22038715 -0.114278905 -0.113637626 -0.14534469
0002b0 7b ee 17 be c4 a6 bf bd 28 1b 02 be ea 6b c4 bd
       -0.14837067 -0.0935798 -0.12705672 -0.095908955
0002c0 e7 8e 95 be 6d 7a 82 be f3 af 12 be c8 e0 36 bd
       -0.29210588 -0.25484028 -0.14324932 -0.04464796
0002d0 b6 29 68 be ee e9 d5 bd 9e ad 30 bc 44 62 2c bd
       -0.22672161 -0.10445009 -0.010783581 -0.0420859
0002e0 70 c5 21 be c6 cd fb bd ea f2 39 bb 84 7d fe bd
       -0.15797973 -0.122951075 -0.0028373548 -0.12426284
0002f0 84 93 5e bd ca c4 cc bd 25 f1 27 be 23 61 1d be
       -0.0543399 -0.09998472 -0.16400583 -0.15369086
000300 b4 5f 28 be 07 12 8b 3e ef 98 0a be 08 06 3f be
       -0.16442758 0.2716219 -0.13534902 -0.18654644
000310 f9 0d 57 be ee 09 f8 bd ab c6 42 be b1 08 84 be
       -0.21001424 -0.12111269 -0.19021098 -0.2578788
000320 ff 2a 2f be 82 35 31 be b7 64 07 be b2 b2 03 be
       -0.17106245 -0.17305568 -0.13222013 -0.12861136
000330 1e ce f3 bd 46 03 17 be f7 b0 ee bd b6 c7 f8 bd
       -0.11904548 -0.14747342 -0.11654847 -0.12147467
000340 2b 37 f9 bd 45 7b 63 be 6b e1 01 be d5 4f de bd
       -0.121687256 -0.22214992 -0.12683646 -0.108550705
000350 54 96 c8 3d 89 41 c3 bd 0c ff b0 be 79 d6 98 bd
       0.09794298 -0.09533984 -0.34569585 -0.074627824
000360 bb c9 19 be 9f 50 c9 bd eb 3f 1a be 83 a3 26 be
       -0.1501836 -0.098298304 -0.15063445 -0.16273312
000370 59 7d 82 be 64 54 1b be 1e 32 b1 bd 4f cf 42 be
       -0.25486258 -0.15168911 -0.08652137 -0.19024394
000380 1c 4a 92 bd 93 2a 51 bd ce 3e a0 bd 78 2c 11 be
       -0.071430415 -0.051065993 -0.07824479 -0.1417712
000390 79 ba c1 bd 9b 90 27 be 27 30 77 be 31 c5 1c be
       -0.09459395 -0.16363756 -0.24139462 -0.15309598
0003a0 45 04 38 be 3a 6e 79 3d 40 ff cb bd 30 41 28 be
       -0.17970379 0.060896136 -0.099607944 -0.16431117
0003b0 ca 10 a7 bd 64 01 b1 bd 3d ef a3 bd 68 66 0e 3e
       -0.08157499 -0.08642843 -0.080046155 0.13906252
0003c0 b5 4f d3 be 39 b7 30 be 07 25 b8 bd 45 a7 73 bd
       -0.4127175 -0.17257394 -0.089914374 -0.059485693
0003d0 f8 7e 47 be 8c 62 32 be da 64 f7 bd e2 d1 6f be
       -0.19482028 -0.17420405 -0.12079783 -0.23419908
0003e0 4d 7c 6d bd dc a1 bd bd 69 ae 66 be db 84 40 bd
       -0.05797987 -0.09259388 -0.2252747 -0.0470017
0003f0 a0 fe 2b be 91 82 7d bc 84 b5 1f be ee ba 0c be
       -0.1679635 -0.015473024 -0.15596586 -0.13743183

fc3.weight f4 [1, 300]
000000 c3 cb 43 3a 88 75 1d bc 69 b2 c0 3a 76 bd de ba
       0.00074690225 -0.009610541 0.0014701608 -0.001699372
000010 7a 11 33 bb ae e4 56 bb 2b 61 61 bb c2 93 b3 3d
       -0.002732365 -0.0032790112 -0.0034390192 0.08768417
000020 60 e3 a9 ba a0 00 11 3b fa 2b 6f 3a 9b cd a5 39
       -0.001296144 0.0022125617 0.00091236795 0.0003162444
000030 49 c0 60 3a b5 d3 00 3c dc de cd bc 0e 79 8c 3b
       0.00085735746 0.007862975 -0.025130682 0.004286892
000040 40 e3 cb 3c 23 9a d9 bb cd 09 b2 3b d8 4c ee 38
       0.024888635 -0.006640689 0.0054332973 0.000113630376
000050 18 2e a0 bc ee 2a bb ba 14 c5 d2 ba f9 ff 13 bc
       -0.01955323 -0.0014279762 -0.0016080462 -0.009033197
000060 c9 e2 b9 3c 8e 28 93 ba 72 9f bd ba e8 e2 0d 3b
       0.022691147 -0.0011227296 -0.0014467074 0.002165014
000070 47 47 53 3b e5 c9 6b bc 60 0f d9 39 de f1 44 ba
       0.003223853 -0.014391397 0.0004140092 -0.00075128477
000080 4d 40 d5 3b 71 4e 23 3c 8c b6 89 ba ca 30 8b ba
       0.0065079094 0.009967432 -0.0010506674 -0.0010619399
000090 9e a9 e7 bc 88 73 3c ba a5 27 7c bb 98 41 53 bc
       -0.028279122 -0.00071888464 -0.0038475778 -0.012894057
0000a0 b9 3d eb bb e4 08 b4 b9 df 9a eb ba b4 81 49 ba
       -0.007178989 -0.000343389 -0.0017975232 -0.0007686869
0000b0 d8 1b 80 3a dc 14 81 bc e5 ad c7 bb 2e 5e 85 bc
       0.0009773923 -0.015757017 -0.006093728 -0.01628026
0000c0 0f c4 05 ba 0b 4a 13 bd 85 5e c2 bc 8c 8c 8f bc
       -0.00051027624 -0.035959285 -0.023726711 -0.017523073
0000d0 b3 fb d6 bc 55 6a 14 3c 71 17 3b bb 38 c9 8b 3c
       -0.026243066 0.009058555 -0.0028547908 0.017063722
0000e0 ba a0 16 bb 30 6e f8 ba 49 a2 ac ba 1f ec 7d 3c
       -0.0022983984 -0.0018953737 -0.0013170923 0.01549819
0000f0 10 63 e9 ba 38 66 a6 37 7b cf 4a bb 7f 51 14 bb
       -0.0017806012 1.9836341e-05 -0.0030946422 -0.0022631583
000100 bc e0 57 bb 9e 8c 91 bb 70 e7 4f 3c 64 5a 3e bd
       -0.0032940349 -0.0044418117 0.012689456 -0.046472922
000110 7a 19 9d 3a 4e 16 15 ba 85 c8 1f 3c 16 88 de 3a
       0.0011985742 -0.00056872226 0.009752397 0.0016977813
000120 05 91 04 3c 1b d9 a1 3c da fb d6 3d 4a 13 8e bc
       0.008091216 0.019756844 0.104972556 -0.017343182
000130 a5 3c ad 3c dd 24 05 3b 5c df f9 3a 7c a8 ff 3a
       0.021147082 0.0020316162 0.0019063759 0.0019505168
000140 80 37 ca 3a 08 26 c7 39 7d 01 53 3c 14 94 cb ba
       0.0015427917 0.00037984573 0.012878773 -0.0015531802
000150 0a 68 f6 b9 e5 d9 ac ba 0b 11 f4 3c 44 4b 5d bc
       -0.00046998292 -0.0013187496 0.029793283 -0.013506714
000160 61 76 8c bc 7a c9 ec 3a a4 a0 89 ba 99 33 13 3c
       -0.017146291 0.0018065416 -0.0010500145 0.00898447
000170 b1 9a a4 3b 26 ea 93 bc 3a be 42 3a 7b 63 35 3c
       0.0050233235 -0.018055987 0.00074288587 0.011071081
000180 4c e3 20 3b 1e f1 88 3c 7e ad a3 bc bc c5 25 bd
       0.0024549542 0.016716536 -0.019980188 -0.040471777
000190 ce 4a e2 ba 2f 92 56 3b c9 cb 70 3d be 45 98 38
       -0.0017264725 0.003274094 0.058788095 7.260915e-05
0001a0 d6 bf 04 bc 5a 23 c5 3c 7f 83 8f bb 2b a2 fb bd
       -0.008102378 0.024064709 -0.004379689 -0.122867905
0001b0 83 d2 97 3a e4 f3 c9 39 72 1b 07 3c e2 e0 3e 3b
       0.0011583123 0.0003851942 0.00824629 0.002912574
0001c0 31 15 8a bc f2 76 e3 bb 83 55 0d bd 4b 44 04 3a
       -0.016855808 -0.0069416696 -0.03450538 0.0005045577
0001d0 3c d0 31 bb 3f e0 68 bb 6b 8a 87 3d 64 3b 41 39
       -0.0027132174 -0.0035534052 0.06618198 0.00018428039
0001e0 9d 23 c6 bb 92 87 54 bb 44 cf 33 bb b4 e0 91 ba
       -0.006046726 -0.003242944 -0.0027436772 -0.0011129589
0001f0 be ff 7c bc ad 60 4f 3b 0a d3 f3 b9 94 8d 8b bd
       -0.015441833 0.0031643317 -0.00046505808 -0.06814113
000200 c8 4e 8b bb c1 dd 02 bc 8b 29 58 3c e6 5e 57 3b
       -0.004251335 -0.007987441 0.013193498 0.003286296
000210 10 3b dd ba 3e bd c9 bc ef 3d ff 39 82 6c 18 b9
       -0.0016878564 -0.02462637 0.00048683534 -0.00014536272
000220 76 e2 88 3a 74 63 92 ba 4c 4e 9a b9 c1 d7 c6 bc
       0.0010443467 -0.0011168555 -0.00029431505 -0.024272801
000230 3c 8e 08 bd 02 43 28 3d cf a6 f0 bb 7f 8c 0c 3b
       -0.03333877 0.04107953 -0.007344104 0.0021446047
000240 a3 bc 3f 3a 46 a4 7b 39 ac d7 3c 3d 45 95 29 ba
       0.0007314181 0.00023998422 0.04610412 -0.0006469081
000250 bc 68 85 39 cc cb e4 3c 67 f6 ec 3a f2 dd cb bb
       0.0002544577 0.02792921 0.0018078805 -0.0062215263
000260 d4 7c 39 3c 81 93 7d bc b9 19 cc b9 fb 4c cd b9
       0.011321265 -0.015477062 -0.00038929077 -0.00039158002
000270 a4 68 e3 3b 20 9e 28 3d 36 d7 14 bc 79 a7 1d bd
       0.0069399644 0.041166425 -0.009084513 -0.038489792
000280 36 4a 3c ba 01 e7 96 3d ca c4 d6 39 b7 35 01 bb
       -0.0007182689 0.07368279 0.0004096388 -0.0019715854
000290 e9 e7 c3 3a d3 26 da 3a a4 d8 47 bc d1 a8 1c 3b
       0.0014946434 0.0016643651 -0.012197647 0.0023904333
0002a0 f3 9e a0 ba a5 8f 80 ba 08 3b 67 3b 2a 0b 02 ba
       -0.0012254402 -0.0009808434 0.0035282988 -0.000496077
0002b0 86 37 52 ba 22 3e dc ba 0f 62 60 3c f5 06 2a 3b
       -0.0008019138 -0.0016803185 0.013695254 0.0025944088
0002c0 58 fb 04 bd f3 06 04 bd 35 67 e3 3b 4c db ee b8
       -0.032466263 -0.03223319 0.0069397935 -0.000113895716
0002d0 79 d1 3c bc e4 2a 13 3a 8a 80 8e 3c 20 a4 b5 3c
       -0.011524552 0.0005613996 0.017395277 0.022172987
0002e0 7c 43 0d bc c5 09 4c bb 3b ef d7 bc 49 ea 13 3a
       -0.008622047 -0.0031133753 -0.026359191 0.0005642516
0002f0 39 b3 03 3b ba 1e 01 bb 80 e5 d9 39 a6 b9 b0 bb
       0.0020095839 -0.0019702152 0.00041560456 -0.005393225
000300 26 0a 83 ba 16 79 e0 3b 8c 3e 82 ba 28 d5 d7 ba
       -0.0009997531 0.006850372 -0.0009936853 -0.0016466724
000310 86 7f ce 3b 8d 5b 09 3c 4e e0 53 3a 22 6f 19 3b
       0.006301823 0.008383644 0.0008082435 0.0023412188
000320 8a 6a 88 3c 2c f6 13 3a c4 28 d8 b8 e9 a9 8d b9
       0.016652364 0.00056442874 -0.00010307276 -0.0002702021
000330 7f d0 1e bd d0 8d 90 b9 b2 01 f3 3c 28 5d 82 3d
       -0.038773056 -0.0002757148 0.029663894 0.063654244
000340 36 c0 08 ba 71 79 90 bb 9f 5a 40 3b e4 21 41 3b
       -0.000521663 -0.004409008 0.002935089 0.0029469663
000350 27 b3 86 3c 74 4e 56 3a ce 75 3f 3d 5c 73 7b bb
       0.016442848 0.00081751426 0.046743207 -0.003836832
000360 21 ba b1 ba ab fb 8b bb e6 75 80 bc 56 f6 1f 3b
       -0.0013559499 -0.0042719445 -0.015681218 0.0024408302
000370 9a ea 34 bd 9a fa 1e bb 93 5b a0 bb f0 9a 11 bb
       -0.044169046 -0.0024258257 -0.004893729 -0.0022217594
000380 d8 3c 0b b9 1d 29 0b 3c b4 e7 0f ba 14 0a 71 3a
       -0.00013278739 0.008493689 -0.00054895435 0.0009194922
000390 5d 50 77 3a 7d a5 4a b9 02 ab d1 b9 7f be af bb
       0.00094342773 -0.0001932587 -0.00039990997 -0.005363285
0003a0 bd 4f b4 3c 08 a7 2c 3d 6b 9d 69 3a c4 b3 4f 3b
       0.022010678 0.04215148 0.0008911702 0.0031692842
0003b0 82 cf 45 3d cc fc 8e 3b ae 82 1f 39 c3 28 57 bc
       0.048293598 0.004363632 0.00015212104 -0.013132277
0003c0 e1 b6 4e 3d aa 0f 4e ba ff a4 6f bc 81 71 f0 ba
       0.050467376 -0.00078606105 -0.0146267405 -0.0018344374
0003d0 a1 e1 1b bc 27 3c d0 ba 09 25 c7 3a 01 6c 8f 3b
       -0.009514243 -0.0015887067 0.0015193532 0.0043768887
0003e0 cb ed 8e bc e4 df 27 3d 27 16 8f 3b b4 ea 8d 3c
       -0.017447373 0.040985003 0.0043666544 0.01732383
0003f0 36 fe 36 bb 59 92 f8 ba 54 eb 9d 3c 2d 6f f7 bc
       -0.0027922518 -0.0018964513 0.019277252 -0.03020438
